CNN/pth/cnn_l3k16_26.7.pth (torch, 10351 bytes, 14 tensors)

weight f4 [4, 1, 16]
0	0x3e82f30f	0.25576064
1	0xbd5f57cd	-0.054527093
2	0x3e912fba	0.28356725
3	0x3e2b400d	0.16723652
4	0x3e84896f	0.25886104
5	0xbbf66083	-0.0075188293
6	0xbee090d2	-0.4386049
7	0xbf19637a	-0.59917414
8	0xbf005942	-0.50136197
9	0xbec872ce	-0.3915009
10	0x3b08a5d8	0.0020850804
11	0x3ed28164	0.41114342
12	0x3ec964df	0.3933477
13	0xbba3e84a	-0.0050020562
14	0x3e3460f6	0.17615113
15	0x3f07f64a	0.5311018
16	0xbd4b7f34	-0.049681857
17	0x3de06880	0.10957432
18	0xbcdf33e8	-0.02724643
19	0xbea702c3	-0.32619295
20	0xbf15a278	-0.5845103
21	0x3ef1d756	0.472346
22	0xbf2b00de	-0.667982
23	0xbf0d9036	-0.55298173
24	0xbe9bb449	-0.30410984
25	0xbe16ecda	-0.14738789
26	0x3ee0a203	0.43873605
27	0x3e9c4380	0.30520248
28	0x3ebc304c	0.36755598
29	0x3c425ee6	0.011863446
30	0xbe901678	-0.28142142
31	0xbeb408da	-0.35163003
32	0x3e9115eb	0.28337035
33	0x3e32bc94	0.1745475
34	0xbf238edc	-0.6388986
35	0xbda6e190	-0.081484914
36	0x3eefdd86	0.46848696
37	0x3e6d602d	0.2318122
38	0x3e01b428	0.1266638
39	0xbe821cca	-0.2541259
40	0xbf156d0d	-0.58369523
41	0xbedc3993	-0.43012676
42	0xbea765b1	-0.32694772
43	0xbcec23c7	-0.028825654
44	0x3e280c6f	0.16410993
45	0x3e8156f2	0.25261647
46	0x3dbcf714	0.09226814
47	0x3e9d3740	0.30706215
48	0x3e56c714	0.2097438
49	0xbe8fdf8b	-0.28100237
50	0x3f11d24c	0.5696151
51	0xbe84989d	-0.25897685
52	0xbf458fb3	-0.7717239
53	0xbeea8347	-0.45803282
54	0x3d64cf09	0.055861507
55	0x3e1fb77e	0.1559734
56	0x3e86bd99	0.26316527
57	0x3e765e69	0.24059452
58	0x3e270d53	0.16313677
59	0xbc9de5fb	-0.019274702
60	0xbba8dc69	-0.005153228
61	0xbb243c16	-0.0025060228
62	0xbc6958ef	-0.014242395
63	0x3b2213e8	0.0024731103

bias f4 [4]
0	0xbe604fdf	-0.21905468
1	0x3c6089a1	0.013704688
2	0x3f200e99	0.62522274
3	0xbf35ad52	-0.7096759

weight f4 [4]
0	0x3f809185	1.0044409
1	0x3f388ff8	0.7209468
2	0x3f5c0e87	0.85959667
3	0x3f93d186	1.1548316

bias f4 [4]
0	0x3f2a719d	0.6657961
1	0x3f0be38c	0.54644084
2	0x3ec29815	0.38006654
3	0x3d1c4c56	0.038158737

running_mean f4 [4]
0	0xbcedd241	-0.029030921
1	0xbf1d88f1	-0.6153708
2	0x3f074940	0.52846146
3	0xbf450e14	-0.76974607

running_var f4 [4]
0	0x3c744996	0.014910122
1	0x3c5c8bb7	0.013461045
2	0x3c4b8ead	0.012424153
3	0x3c1ca65c	0.009561148

weight f4 [4, 4, 16]
0	0xbe7de8ac	-0.24795789
1	0x3e3211ee	0.17389652
2	0x3d674cfc	0.056469902
3	0xbdb8828d	-0.090092756
4	0xbdcaf34b	-0.09909686
5	0xbed9ad9b	-0.42515263
6	0xbfd52387	-1.6651467
7	0x3e77e361	0.24207832
8	0xbe0f927c	-0.14020723
9	0xbca22ea6	-0.019797634
10	0xbdd1f897	-0.10252493
11	0xbe852ce9	-0.26010826
12	0xbec709f6	-0.38874787
13	0xbf061826	-0.523806
14	0x3e9c21d5	0.30494562
15	0xbdcb8570	-0.099375606
16	0xbeb4f49a	-0.35342866
17	0xbee61941	-0.44941142
18	0x3f026cbc	0.50947165
19	0x3e3e971e	0.18612334
20	0xbd933c66	-0.071892545
21	0xbb9f1976	-0.00485533
22	0x3da78c9e	0.081811175
23	0xbdda816e	-0.10669218
24	0x3e8a9e43	0.2707387
25	0xbde77b80	-0.11302853
26	0x3dd3a0f8	0.10333437
27	0xbdc41d8d	-0.09575949
28	0xbe213b28	-0.15745223
29	0xbe35758e	-0.17720625
30	0xbedd2227	-0.4319012
31	0xbe202613	-0.15639524
32	0x3de7af9c	0.11312792
33	0xbea23e92	-0.31688362
34	0xbd6823f5	-0.056674916
35	0xbe877060	-0.26452923
36	0x3e76a5a3	0.24086623
37	0xbf0adc02	-0.54241955
38	0xbe83cc78	-0.25741935
39	0xbe8ec91f	-0.27887818
40	0x3eeb495b	0.45954403
41	0x3e1137da	0.14181462
42	0xbe1b3396	-0.15156397
43	0xbf3df8d9	-0.74207836
44	0xbefd8041	-0.49511912
45	0xbe2a858d	-0.16652508
46	0x3cd64911	0.026157888
47	0x3ed5010a	0.41602355
48	0x3e84030e	0.2578358
49	0xbe658e1b	-0.2241749
50	0xbd9175f8	-0.07102579
51	0xbd9ebc68	-0.077507794
52	0x3e2a218f	0.16614364
53	0x3c412b2e	0.01179008
54	0x3e5a7cdc	0.21336693
55	0x3ec0d3fc	0.3766173
56	0xbe7d0077	-0.24707209
57	0x3e52f7e2	0.20602372
58	0x3d44be5e	0.04803311
59	0xbd2aa4fa	-0.04166124
60	0xbd448a07	-0.047983196
61	0xbd8958bf	-0.0670638
62	0x3ea59640	0.32341194
63	0x3d343fe1	0.044006232
64	0x3cdeab8b	0.027181407
65	0xbd7174d3	-0.058949303
66	0xbe94c80b	-0.2905887
67	0xbed08aae	-0.40730804
68	0xbe4910b3	-0.19635276
69	0xbeb81838	-0.35955977
70	0xbefb724e	-0.49110645
71	0xbeb7ad48	-0.3587439
72	0xbe9ae75a	-0.30254632
73	0x3cc45739	0.023967372
74	0xbda4f9a5	-0.080554284
75	0xbe91e786	-0.2849695
76	0x3dc27a1b	0.09495946
77	0x3e1fe417	0.15614353
78	0xbe2091d7	-0.15680633
79	0xbd97b3d3	-0.074073456
80	0xbedc2d7a	-0.43003446
81	0xbed4847c	-0.41507328
82	0x3e096451	0.13417174
83	0x3ea45171	0.32093385
84	0x3f0d5dcc	0.5522125
85	0x3e92c53e	0.2866611
86	0xbf1d774d	-0.61510164
87	0xbefbc618	-0.4917457
88	0xbdf3127c	-0.1186876
89	0xbe4ed272	-0.20197466
90	0x3da780e5	0.081788816
91	0x3e98eb17	0.2986686
92	0x3db50bbf	0.08840131
93	0xbe6293fe	-0.22126767
94	0xbd567099	-0.052353475
95	0xbe015876	-0.12631401
96	0xbe05df2c	-0.13073415
97	0xbe833f60	-0.2563429
98	0xbea71746	-0.32634944
99	0xbcd03b8c	-0.02541902
100	0xbd7abdd6	-0.061216198
101	0xbe9c94cf	-0.30582282
102	0xbba4678b	-0.005017226
103	0xbec8c3e6	-0.3921196
104	0x3de78edc	0.11306545
105	0xbf13e889	-0.57776695
106	0xbe275dc7	-0.16344367
107	0xbe6001af	-0.21875642
108	0x3e58974f	0.2115147
109	0x3dc7341d	0.09726737
110	0xbe4502be	-0.19239327
111	0xbe893fd3	-0.26806507
112	0x3e8b4f5a	0.27208978
113	0xbf14c01b	-0.5810563
114	0x3ebe0d98	0.37119746
115	0xbe5939a9	-0.21213402
116	0x3e3798b8	0.17929351
117	0x3ec0b2ec	0.37636507
118	0x3f55e0e1	0.8354626
119	0x3f0414c3	0.5159418
120	0x3ee5dc21	0.44894508
121	0x3e85e364	0.26150048
122	0xbc5ef365	-0.0136078345
123	0x3e3af1e9	0.18256344
124	0x3e9b9a93	0.30391368
125	0x3d3148f1	0.043282453
126	0xbaf677da	-0.0018804029
127	0xbe2aedbf	-0.16692255
128	0x3dc79e5e	0.09747003
129	0xbe01946f	-0.12654279
130	0x3eb762a2	0.35817438
131	0xbe95da49	-0.292681
132	0xbf03a6e3	-0.51426524
133	0xbe625365	-0.22102125
134	0xbe9f6cdd	-0.31137744
135	0xbe5a196e	-0.21298763
136	0xbe302625	-0.17202051
137	0xbec180cf	-0.37793586
138	0xbe94bf80	-0.29052353
139	0xbea50f81	-0.3223839
140	0xbdad6de0	-0.084682226
141	0xbda4d109	-0.08047683
142	0xbd66fede	-0.056395404
143	0x3bed3f99	0.0072402474
144	0xbe3d7e9c	-0.18505329
145	0xbf092a77	-0.5358042
146	0xbeeeb691	-0.46623662
147	0x3f661f67	0.89891666
148	0xbf33e5c7	-0.7027249
149	0x3e161422	0.14656118
150	0xbd98125a	-0.07425375
151	0x3daa033c	0.08301398
152	0x3e5d7775	0.216276
153	0x3ea1fe87	0.316395
154	0x3dfd5ecd	0.123715974
155	0xbe4fc573	-0.20290165
156	0xbe85deec	-0.26146638
157	0xbe509805	-0.20370491
158	0xbe17a422	-0.14808705
159	0x3c3cce10	0.0115237385
160	0xbd63ad35	-0.055585105
161	0xbb4df820	-0.0031428412
162	0x3e09c023	0.134522
163	0x3b9aaf6b	0.0047206185
164	0xbf7448ed	-0.95423776
165	0xbed0009b	-0.40625462
166	0xbe839f65	-0.25707546
167	0xbe36afb8	-0.17840469
168	0xbd1d91d4	-0.03846915
169	0xbd20e5e5	-0.039281745
170	0x3ddf27ef	0.108962886
171	0x3e35fbe1	0.17771865
172	0xbe0f41bf	-0.13989924
173	0x3dc1721f	0.09445595
174	0xbe69abda	-0.22819462
175	0xbea0b81c	-0.31390464
176	0x3d0f000e	0.03491216
177	0x3c9d24c5	0.019182572
178	0x3c19d1b1	0.009388373
179	0x3e731ee0	0.23742247
180	0x3e7b2277	0.24524866
181	0x3e2493c4	0.16071993
182	0x3f345fa1	0.7045842
183	0x3f2afa94	0.667886
184	0x3e76910e	0.24078771
185	0x3e8eedaa	0.27915698
186	0x3e1ad77f	0.15121268
187	0x3ebef429	0.37295654
188	0x3e3d15e4	0.18465382
189	0x3e13b8bc	0.1442594
190	0xbe1eda92	-0.15513065
191	0xbe85cccb	-0.26132807
192	0x3d49dc7d	0.04928254
193	0x3e4a3638	0.19747245
194	0x3dd9e124	0.10638645
195	0xbf27d81e	-0.65564144
196	0xbdda7e1b	-0.10668584
197	0x3de2bfe6	0.11071758
198	0xbe7ef03e	-0.24896333
199	0xbe775aa4	-0.2415567
200	0x3e16997b	0.14706986
201	0x3d08e34c	0.033419892
202	0x3e478792	0.1948531
203	0x3ee80ff1	0.45324662
204	0x3f38e9a7	0.72231525
205	0x3d47330e	0.048632674
206	0xbde772a5	-0.113011636
207	0xbe02a9f2	-0.12760141
208	0x3df8eb3d	0.12154243
209	0xbe8393f9	-0.25698832
210	0x3d9311a9	0.07181103
211	0xbe1c4592	-0.15260914
212	0xbd4f6e25	-0.05064215
213	0x3e29e4bf	0.16591166
214	0xbaa659ec	-0.0012691594
215	0xbc67c8fe	-0.014147041
216	0x3e8b9f56	0.2727
217	0x3d753ed6	0.05987438
218	0x3eb36354	0.3503672
219	0x3e247c41	0.16063024
220	0xbe277943	-0.16354851
221	0xbdb3b9ae	-0.0877565
222	0xbd7dfadc	-0.062006816
223	0x3e2ac739	0.1667756
224	0xbd4c6ba4	-0.04990734
225	0xbbc7e20d	-0.0060999454
226	0xbe00df7b	-0.12585251
227	0xbf861530	-1.0475216
228	0xbe18cee6	-0.14922675
229	0xbdd8e1c1	-0.10589934
230	0x3e69eae2	0.22843507
231	0x3e2410ad	0.16021986
232	0xbc51d0bc	-0.012806114
233	0x3eb355d8	0.3502643
234	0x3cdcf912	0.026974235
235	0xbe0a4ef0	-0.13506675
236	0x3dd6a785	0.104811706
237	0x3df34c2a	0.118797615
238	0xbe824753	-0.2544504
239	0xbe856917	-0.2605674
240	0xbcaae7e4	-0.020862527
241	0x3dcdbe43	0.10046055
242	0xbea50646	-0.3223135
243	0xbe971e02	-0.29515082
244	0x3eb56662	0.35429674
245	0x3e73da5d	0.23813768
246	0x3ed4df41	0.4157658
247	0x3e2c0344	0.1679812
248	0xbdd707aa	-0.10499509
249	0xbe7d53e6	-0.24739036
250	0xbdfd53f0	-0.123695254
251	0xbea73926	-0.32660788
252	0xbf401202	-0.7502748
253	0xbf1e8f06	-0.61936986
254	0xbee162d0	-0.440207
255	0xbecc0350	-0.39846277

bias f4 [4]
0	0x3e4f66e1	0.20254089
1	0x3e837200	0.25672913
2	0xbe753878	-0.23947322
3	0x3bc06770	0.0058717057

weight f4 [4]
0	0x3fe859bf	1.8152388
1	0x3fa2b89e	1.2712591
2	0x3fb71dc5	1.430596
3	0x3fb94e78	1.4477072

bias f4 [4]
0	0xbefcc9dd	-0.4937276
1	0xbeed69fb	-0.4636992
2	0xbde3b750	-0.111189485
3	0x3e4806eb	0.19533889

running_mean f4 [4]
0	0xc091951d	-4.5494523
1	0xc05c7bcd	-3.4450562
2	0xc05ce0e0	-3.4512253
3	0xbf75de35	-0.96042186

running_var f4 [4]
0	0x409eaec7	4.958835
1	0x3fafa32d	1.3721672
2	0x3fef1533	1.8678344
3	0x3fd45b58	1.6590376

weight f4 [1, 4, 16]
0	0x3f2c9e67	0.674292
1	0x3f1468b4	0.57972264
2	0xbe2543a3	-0.16139083
3	0xbe6e9939	-0.23300637
4	0xbc1b3185	-0.009472256
5	0xbee712c7	-0.45131513
6	0xbed8e77b	-0.42364106
7	0xbf8689dd	-1.0510823
8	0x3db39a87	0.08769708
9	0xbec52940	-0.38508034
10	0xbf9f55d0	-1.2448063
11	0x3f41ff6e	0.7578038
12	0x3e8dad25	0.2767116
13	0xbf545f92	-0.8295833
14	0x3ec01189	0.37513378
15	0x3e5e668e	0.21718809
16	0x3f309e24	0.68991303
17	0x3f0c8477	0.54889625
18	0x3de9e98e	0.114215
19	0x3e600eae	0.218806
20	0x3e956eef	0.29186198
21	0xbd8c223c	-0.06842467
22	0x3f076f95	0.52904636
23	0x3ec38091	0.38184026
24	0x3e98e881	0.29864886
25	0xbe565b28	-0.20933211
26	0xbf314ca2	-0.6925756
27	0x3f2038e4	0.6258681
28	0xbeae9b2a	-0.34102756
29	0xbe77f830	-0.2421577
30	0xbe0a4ba8	-0.13505423
31	0xbe4d6aef	-0.20060323
32	0x3efc1826	0.49237174
33	0x3f238b51	0.63884455
34	0x3f40bd2f	0.7528867
35	0x3f0c2182	0.5473863
36	0x3f10541c	0.5637834
37	0x3e1ed233	0.15509872
38	0xbc8a4d47	-0.016882552
39	0x3ed0fdc7	0.40818617
40	0x3e8dd0d2	0.2769838
41	0x3f2bf4f3	0.6717064
42	0x3e6833d9	0.22676028
43	0x3e0fbbdb	0.14036505
44	0x3ecacec2	0.3961087
45	0x3bae3d90	0.0053173974
46	0x3e9e016b	0.30860457
47	0xbdbf75b8	-0.09348625
48	0xbda355ef	-0.07975375
49	0x3e89e45f	0.26932046
50	0x3f12ed04	0.5739291
51	0x3dd12caa	0.10213597
52	0x3c74003e	0.014892636
53	0xbd2a156a	-0.04152433
54	0xbc8736b9	-0.016505586
55	0xbcb55a64	-0.022137828
56	0xbe130127	-0.14355908
57	0x3e7f18bf	0.24911784
58	0x3f5d419a	0.86428225
59	0x3ef2626d	0.47340718
60	0x3eff795b	0.49897274
61	0x3f6662b8	0.8999438
62	0x3ee20433	0.4414383
63	0x3e4d1051	0.20025755

weight f4 [1, 115]
0	0x3f3a9b14	0.7289288
1	0x3fa1a3bc	1.2628093
2	0x3f811fe5	1.0087858
3	0x3d61db29	0.055140648
4	0xbec1e7e6	-0.37872237
5	0xbf4b5b36	-0.7943605
6	0xbea7b437	-0.3275468
7	0x3f545b8d	0.82952195
8	0x3f18f509	0.59748894
9	0xbda37285	-0.07980827
10	0xbed3a1aa	-0.41334277
11	0xbdd85452	-0.10562958
12	0x3eae064d	0.33989182
13	0xbe1d9c2f	-0.1539161
14	0x3f29ddc3	0.66354007
15	0x3e292b40	0.16520405
16	0x3e04676f	0.12930082
17	0xbde52732	-0.111891165
18	0x3be82059	0.0070839343
19	0x3f17a3e2	0.5923444
20	0xbe89a771	-0.2688556
21	0xbe2a2854	-0.16616946
22	0x3e38d546	0.18050107
23	0x3ea17c75	0.31540266
24	0xbdcdbcae	-0.100457534
25	0x3e220891	0.1582358
26	0xbed19fe6	-0.40942305
27	0x3ed16127	0.40894434
28	0xbd9b0dd5	-0.075709976
29	0xbbc58b79	-0.0060285893
30	0x3ed3433d	0.41262236
31	0xbf012200	-0.50442505
32	0x3f1effd4	0.6210911
33	0x3cd6f3f2	0.026239369
34	0x3d1bd4ff	0.038044926
35	0xbcc9fb7d	-0.024656052
36	0x3ec41a4a	0.38301307
37	0x3dfa14c9	0.12210996
38	0xbe3c5e43	-0.18395333
39	0xbcaae83a	-0.020862687
40	0xbe867d75	-0.2626759
41	0x3e139a17	0.1441425
42	0x3e333af0	0.17502952
43	0xbdddf390	-0.108374715
44	0x3f3aa40a	0.72906554
45	0xbdb47ba5	-0.08812646
46	0xbd82b0be	-0.06381367
47	0x3e94d3e5	0.29067913
48	0x3ebff69e	0.3749284
49	0xbef9398b	-0.48676714
50	0x3ee1334e	0.43984455
51	0xbc733f00	-0.014846563
52	0x3e846d24	0.25864518
53	0x3df7298c	0.12068471
54	0x3e648747	0.22317229
55	0xbec7fdd1	-0.39060834
56	0x3efff829	0.4999402
57	0xbc0bffed	-0.008544904
58	0x3e2c1ae4	0.16807133
59	0xbeae21d3	-0.3401018
60	0x3f07065a	0.52744067
61	0x3f2d8442	0.67779934
62	0xbf12b281	-0.57303625
63	0xbe65af2a	-0.22430101
64	0x3f6f9b39	0.93596226
65	0xbe874dfb	-0.26426682
66	0x3d98be51	0.07458175
67	0x3e1a5d21	0.15074588
68	0x3eb366ab	0.35039267
69	0x3ef1818d	0.47169152
70	0xbe3032e1	-0.17206909
71	0x3e9a1f23	0.3010188
72	0x3cb2cf38	0.021827325
73	0xbf49e7a7	-0.788691
74	0x3f2af192	0.6677486
75	0x3e977dcc	0.29588163
76	0xbd51ccf9	-0.051220868
77	0x3ef7e4f1	0.48416856
78	0xbf454dcb	-0.7707183
79	0x3f2c507d	0.67310315
80	0x3eb29780	0.3488121
81	0xbeb27ef0	-0.3486247
82	0x3dbf1b55	0.09331385
83	0x3eb19e99	0.34691313
84	0x3e21b994	0.15793449
85	0x3f126b7c	0.5719526
86	0xbe2f4309	-0.17115416
87	0xbda36a58	-0.07979268
88	0xbe528bf0	-0.20561194
89	0x3f1ec453	0.62018317
90	0xbd7130f3	-0.058884572
91	0x3df13d90	0.1177932
92	0x3e938272	0.2881046
93	0xbf056f2e	-0.5212277
94	0x3f400487	0.7500691
95	0xbec0dc55	-0.376681
96	0x3dc26cf0	0.094934344
97	0x3cf2b36a	0.029626567
98	0x3ee50c39	0.44735888
99	0xbe971f6c	-0.2951616
100	0x3f6f367e	0.93442523
101	0xbdf37951	-0.11888374
102	0xbcbb0bd8	-0.022832796
103	0xbe3fd392	-0.18733051
104	0xbe0f631e	-0.14002654
105	0x3e974fff	0.2955322
106	0xbda08f04	-0.07839778
107	0x3e986dff	0.2977142
108	0x3e93dddd	0.28880206
109	0xbe61244a	-0.219865
110	0xbe7c5ca2	-0.24644712
111	0x3e497e09	0.19676985
112	0xbebe5faa	-0.3718236
113	0x3eb87d58	0.3603313
114	0x3eed2198	0.46314692
