CNN/pth/cnn_l4k4_9.5.pth (torch, 11930 bytes, 20 tensors)

weight f4 [4, 1, 4]
0	0x3fc9183a	1.5710518
1	0xbf286614	-0.6578076
2	0xbf2ba8e7	-0.670546
3	0xbe1dcdeb	-0.15410583
4	0x3ddabebd	0.10680912
5	0x3f665b2f	0.89982885
6	0x3e784ff9	0.24249257
7	0xbfab42c6	-1.3379753
8	0x3f104afc	0.5636442
9	0x3fcb1f1d	1.586887
10	0xbe44efb7	-0.19232069
11	0xbebd1c3e	-0.3693561
12	0xbb575806	-0.0032858863
13	0xbbc6e878	-0.006070193
14	0xbf91e8d5	-1.139918
15	0x3f9bb9ac	1.2166038

bias f4 [4]
0	0x3e42a956	0.19009909
1	0xbddd0b50	-0.10793173
2	0x3fac904e	1.3481538
3	0xc021b6ac	-2.5267744

weight f4 [4]
0	0x3ff2e73a	1.8976815
1	0x3f545018	0.82934713
2	0x3f354036	0.70801103
3	0x3f812fa9	1.009267

bias f4 [4]
0	0xbe2cad5c	-0.16863006
1	0x3dc426b3	0.09577694
2	0xbd834ab4	-0.06410733
3	0x3feb758c	1.8395247

running_mean f4 [4]
0	0x3e660d0f	0.22465919
1	0xbe1216eb	-0.14266555
2	0x3ffd22f3	1.9776291
3	0xc0200924	-2.500558

running_var f4 [4]
0	0x3c81b543	0.015833503
1	0x3c6d08c9	0.014467427
2	0x3ca23c53	0.019804155
3	0x3c020354	0.007935364

weight f4 [4, 4, 4]
0	0xbeb5bacc	-0.35494077
1	0xc01332c6	-2.299974
2	0xc01072b2	-2.2570004
3	0xbeef0ba0	-0.46688557
4	0xbf7942d4	-0.97367597
5	0x3f4d2e2c	0.8014858
6	0x3c605c73	0.013693917
7	0xbdfa1fc2	-0.122130886
8	0x3e8075a2	0.25089747
9	0x3e254799	0.16140594
10	0xbca0012e	-0.019531813
11	0x3f2194b4	0.6311753
12	0xbfd55cf3	-1.6668991
13	0xbe961484	-0.29312527
14	0x3f50a460	0.81500816
15	0x3e8e7e5c	0.2783078
16	0xbde87b8d	-0.113516904
17	0xbe668d0f	-0.22514747
18	0xbf3a93fc	-0.72882056
19	0xbf525b34	-0.82170415
20	0xbf12a291	-0.57279307
21	0xc0106e04	-2.2567148
22	0xb9a993f2	-0.0003234442
23	0xbc8e924e	-0.017403748
24	0xbe07f561	-0.13277198
25	0x3ec0c575	0.37650648
26	0x3bf50eaa	0.0074785547
27	0xbd983798	-0.07432479
28	0xbeef9f7e	-0.4680137
29	0xc02abc8a	-2.6677575
30	0xbf7259be	-0.94668186
31	0x3e086637	0.13320242
32	0x3f36a972	0.71352303
33	0x3d136f54	0.035994843
34	0xbe40566d	-0.18782969
35	0xbf42a852	-0.76038086
36	0xbec04b01	-0.37557223
37	0xbf53f198	-0.8279052
38	0xbfce4817	-1.611575
39	0xbf5599ae	-0.8343762
40	0x3f0fd53c	0.56184745
41	0x3f5726a0	0.8404331
42	0x3d8d1339	0.06888432
43	0xc00e8f4a	-2.2274957
44	0xbe26f789	-0.16305365
45	0xbd8d4914	-0.06898704
46	0xbf316e1a	-0.69308627
47	0xbf98ac6d	-1.192762
48	0xbd9f296b	-0.07771572
49	0xbecbef86	-0.3983118
50	0xbf9e1620	-1.2350502
51	0xbf810911	-1.0080892
52	0xbee70dff	-0.45127866
53	0xbf5025e2	-0.81307805
54	0xbf8f6319	-1.1202117
55	0xbd69d99c	-0.057092294
56	0x3dc9d01a	0.09854145
57	0xbe7c1f65	-0.24621351
58	0x3f34ca24	0.7062094
59	0xbed43182	-0.4144402
60	0xbe915bd2	-0.28390366
61	0xbfc2723d	-1.5191113
62	0xbf9717a9	-1.1804096
63	0xbe06bc33	-0.1315773

bias f4 [4]
0	0xbee2732d	-0.44228497
1	0xbe9a2f55	-0.30114236
2	0xbed61af4	-0.4181744
3	0xbdb80dcc	-0.089870065

weight f4 [4]
0	0x3f9b19d0	1.2117252
1	0x3fc02c9a	1.5013611
2	0x3f2bbfa1	0.6708928
3	0x3ff03fb1	1.8769437

bias f4 [4]
0	0xbed2097d	-0.41022864
1	0xbf0fbd77	-0.56148475
2	0xbe0ba63b	-0.1363763
3	0xbe993239	-0.2992113

running_mean f4 [4]
0	0xc0b73891	-5.725655
1	0xc131f68b	-11.122691
2	0xc0d58e5a	-6.673627
3	0xc11828b4	-9.509937

running_var f4 [4]
0	0x4251b3bf	52.425533
1	0x41f97606	31.182629
2	0x41baa550	23.330719
3	0x420b57df	34.83581

weight f4 [4, 4, 4]
0	0xbfecaa75	-1.8489519
1	0x3e9f72c5	0.3114225
2	0xbee992c8	-0.45619798
3	0xbfa46408	-1.2843027
4	0xc00dbf5a	-2.2148042
5	0x3f00056b	0.5000827
6	0xbe51433e	-0.20435807
7	0xbf558527	-0.834063
8	0x3e4ca132	0.19983366
9	0x3e8295de	0.25504965
10	0x3f4ae83f	0.7926063
11	0xbf7578fa	-0.9588772
12	0xbeb10db9	-0.34580782
13	0x3e910b8a	0.28329116
14	0x3f79b0e3	0.9753553
15	0x3ed71408	0.4200747
16	0xbeed2224	-0.4631511
17	0xbf0bce75	-0.54611903
18	0xbf945216	-1.1587551
19	0xbf77c427	-0.9678368
20	0xbf22ab06	-0.6354221
21	0xbfab4f23	-1.3383526
22	0xbf8af3ee	-1.0855691
23	0xbf86c300	-1.0528259
24	0xbe384f49	-0.17998995
25	0xbeb909af	-0.361402
26	0xbf5d5317	-0.8645491
27	0xbe7bf99d	-0.24606939
28	0x3f7a4c6c	0.9777286
29	0x3e7497a3	0.2388597
30	0xbd32d3df	-0.043659087
31	0xbe2adfd4	-0.16686946
32	0x3e69a3a1	0.22816326
33	0x3f2ecf61	0.68285185
34	0x3f374139	0.71583897
35	0xbe57c87f	-0.21072577
36	0x3eac19a0	0.336133
37	0xbf68abb8	-0.9088702
38	0xbf6f80ff	-0.9355621
39	0xc001d689	-2.0287192
40	0x3eb02559	0.34403494
41	0xbe57a0c2	-0.21057418
42	0x3eae54fc	0.34049213
43	0xbec115bf	-0.37711903
44	0x3fba0f55	1.4535929
45	0xbee3c6d2	-0.44487625
46	0xbbea7365	-0.0071548694
47	0xbf6c6ccc	-0.9235351
48	0xbdb42f95	-0.08798138
49	0xbb4d91b3	-0.003136736
50	0x3da38272	0.07983865
51	0x3f02b7d8	0.51061773
52	0xbea727d9	-0.3264759
53	0xbd978c4e	-0.07399808
54	0xc004cec9	-2.0751212
55	0x3f356234	0.7085297
56	0x3e397e65	0.18114622
57	0xbf5b9d3b	-0.8578679
58	0xbe72db60	-0.23716497
59	0x3edf9694	0.4366957
60	0x3fbafb93	1.4608024
61	0x3f1bf77c	0.60924506
62	0xbe916b37	-0.2840211
63	0x3ed7db6c	0.42159593

bias f4 [4]
0	0x3f310a9f	0.6915683
1	0x3f5c8467	0.8613953
2	0xbe145d47	-0.14488707
3	0x3ed90a75	0.4239079

weight f4 [4]
0	0x3fd6db01	1.6785585
1	0x3fd2c094	1.646502
2	0x3ff1cbea	1.8890355
3	0x3fd41670	1.6569347

bias f4 [4]
0	0xbe39f129	-0.18158402
1	0x3de376c5	0.11106638
2	0x3f2d8668	0.6778321
3	0xbf97a6c1	-1.1847764

running_mean f4 [4]
0	0x3eb8254c	0.35965955
1	0xbdef1525	-0.11673955
2	0xbef3dcb6	-0.47629327
3	0x3f971aec	1.1805091

running_var f4 [4]
0	0x3f47f8a4	0.7811377
1	0x3ebb557e	0.36588663
2	0x3f8bc1de	1.0918539
3	0x3ee79515	0.45230928

weight f4 [1, 4, 4]
0	0x3f1b7330	0.6072264
1	0x3e7106ae	0.23537704
2	0x3f80992c	1.0046744
3	0x3f301d88	0.6879506
4	0x3f702a98	0.9381499
5	0x3e7e42f5	0.2483023
6	0x3f607cae	0.87690246
7	0x3dadd406	0.08487706
8	0x3fad3887	1.3532876
9	0x3f415beb	0.7553088
10	0xbd0de1e3	-0.03463925
11	0x3d90408a	0.0704356
12	0x3fde3d47	1.736245
13	0x3fd7ecf0	1.6869183
14	0x3e33d0b7	0.17560087
15	0x3c9dae77	0.01924823

weight f4 [1, 63]
0	0xc06cde41	-3.7010653
1	0x408237af	4.0692973
2	0x403faf01	2.9950564
3	0x3f68ad43	0.90889376
4	0xbd8f359e	-0.069926485
5	0xbee890dc	-0.4542302
6	0xbda3945e	-0.07987283
7	0x3e476631	0.19472577
8	0x3e5e3a2e	0.21701881
9	0xbcb857fa	-0.022502888
10	0xbda2b4c4	-0.079446346
11	0x3d67d0d5	0.056595642
12	0x3e178607	0.14797221
13	0x3ee5c017	0.44873115
14	0x3cfcc4c9	0.030855553
15	0xbe421b6b	-0.18955772
16	0xbd882785	-0.06648163
17	0x3e323732	0.17403868
18	0x3e843095	0.25818315
19	0x3dc21e1c	0.09478399
20	0x3e9842e6	0.2973854
21	0x3e1c3984	0.15256315
22	0x3e37172b	0.17879932
23	0x3d925f09	0.07147033
24	0x3dcb4871	0.099259265
25	0x3e48ae44	0.19597727
26	0xbcdd29a8	-0.026997402
27	0x3ea24083	0.31689844
28	0xbe8a8f65	-0.27062526
29	0x3e51650a	0.204487
30	0x3c987c7f	0.018614052
31	0x3f35e371	0.71050173
32	0x3dd07d06	0.10180096
33	0x3e99b6fb	0.30022416
34	0x3e337872	0.17526415
35	0x3eebfd89	0.4609187
36	0xbe65aefa	-0.2243003
37	0xbec804c7	-0.39066145
38	0x3f35db3a	0.7103764
39	0x3cf415d5	0.029795567
40	0xbd55de61	-0.05221403
41	0x3f01dee9	0.5073076
42	0x3e15f7d3	0.14645319
43	0x3f87e1d0	1.0615788
44	0xbf0e9838	-0.5570102
45	0x3e889bda	0.26681405
46	0xbea0d163	-0.3140975
47	0x3dfc6df1	0.12325657
48	0x3d9df384	0.077124625
49	0x3f01a05f	0.5063533
50	0xbddcef36	-0.10787813
51	0x3f1ed1ad	0.6203869
52	0xbe2056ac	-0.15658063
53	0x3e453c33	0.19261245
54	0xbe4e335f	-0.20136784
55	0x3d2ce008	0.04220584
56	0xbc81c191	-0.01583937
57	0xbe5dd6b3	-0.21663933
58	0x3ed0a543	0.40751085
59	0x3f20b885	0.62781554
60	0x3ee1f695	0.4413344
61	0xbdf45ba0	-0.119315386
62	0xbf449451	-0.7678881
