CNN/pth/cnn_9.4f.pth (torch, 11930 bytes, 20 tensors)

weight f4 [4, 1, 4]
00000000: 21d1 bb3f c8ce 2dbf fadb 12bf db6e 01be
00000010: 2edd af3d 1428 523f e170 963e f563 a1bf
00000020: cea4 1f3f 6aa5 b93f 176e cdbd 1bde c8be
00000030: a457 50bc 818e 22bc 25ca 88bf 8db4 913f
1.4673196 -0.6789365 -0.5736691 -0.12639944 0.085871086 0.82092404 0.29382995 -1.260863
0.62360847 1.4503605 -0.100307636 -0.39231953 -0.012716208 -0.009921671 -1.068669 1.1383225

bias f4 [4]
00000000: 8227 6e3e 36d6 0d3e f0b3 a73f 95df 0ec0
0.23257259 0.13851246 1.3101788 -2.2323964

weight f4 [4]
00000000: 28a0 e43f deb9 563f 9c96 333f 5200 843f
1.7861376 0.8387736 0.70151687 1.0312598

bias f4 [4]
00000000: b0b2 1abe bab6 c03d c700 35bd 5429 e43f
-0.15107226 0.09409852 -0.044190194 1.7825112

running_mean f4 [4]
00000000: cbb9 883e 6eba eb3d 8fdd f73f 82b5 0dc0
0.2670425 0.11510168 1.9364489 -2.2142034

running_var f4 [4]
00000000: 0e6d 553c dc24 473c 8144 943c ad97 e33b
0.013026489 0.012154784 0.018099071 0.0069455714

weight f4 [4, 4, 4]
00000000: 0dd3 b8be 3662 0fc0 9a82 0ec0 65ac f0be
00000010: e980 78bf 1e1c 443f 72ca 7e3d c17a d4bd
00000020: 2ed1 573e 65e6 8d3e 8275 35bd 74af 073f
00000030: 61ae d1bf 477d 82be 9190 423f a3a5 883e
00000040: 1b65 e5bd a94c 64be 5174 1fbf a317 3abf
00000050: 81e6 04bf cc61 10c0 4c40 01bd 1633 f7bc
00000060: 7a5c d5bd f66e a53e 109c 6d3c cf37 79bd
00000070: 262e e3be e21c 27c0 1a92 58bf 0e89 ef3d
00000080: bd4b 243f 6cc8 a63c f602 8ebe 3df9 31bf
00000090: 162a bbbe 60f6 44bf 5d6c 9abf 2166 4ebf
000000a0: 952c 2e3f 25f1 5e3f cf2c 113d 31c8 05c0
000000b0: e41a efbd 1952 46bd 5455 14bf be35 96bf
000000c0: e9ca 6fbd 4be7 b2be 3474 9ebf 5b7c 4ebf
000000d0: 1261 e6be 904f 60bf b71f 86bf 9484 80bd
000000e0: 15e1 883d 4c74 1abe 8b81 1e3f 1533 bbbe
000000f0: 7a6c 90be 276c c1bf e0c1 8bbf 5021 eebd
-0.3609852 -2.2403693 -2.2267213 -0.47006527 -0.970717 0.76605403 0.062204786 -0.10374976
0.2107589 0.2771484 -0.044301517 0.53002095 -1.6381341 -0.25486204 0.7600184 0.2668887
-0.11200925 -0.22294869 -0.6228686 -0.72692317 -0.5191422 -2.255969 -0.03155546 -0.030175727
-0.10418029 0.3231122 0.01450254 -0.06084424 -0.44371146 -2.6111379 -0.84597933 0.11696063
0.6417807 0.02035924 -0.27736634 -0.6952093 -0.36555547 -0.7693844 -1.206432 -0.80624586
0.68036777 0.8708671 0.035443123 -2.0903437 -0.11675051 -0.04841814 -0.579427 -1.1735151
-0.05854312 -0.34942088 -1.2379212 -0.806585 -0.44995934 -0.876214 -1.0478429 -0.06275287
0.06683556 -0.15083426 0.61916417 -0.3656241 -0.2820776 -1.511113 -1.0918541 -0.116274476

bias f4 [4]
00000000: 575d 18bd ac19 11bf 236b 7dbe 7626 71be
-0.03719839 -0.566798 -0.247479 -0.23549828

weight f4 [4]
00000000: 292e 943f 8ce4 b53f d175 263f 7e3e e63f
1.1576587 1.4210372 0.65023524 1.7987821

bias f4 [4]
00000000: 0df4 cbbe ac0a 0abf 88c4 04be ed29 a8be
-0.39834633 -0.53922534 -0.12965596 -0.32844487

running_mean f4 [4]
00000000: d496 a1c0 9088 2ac1 5a9b b9c0 d70d 10c1
-5.0496616 -10.65834 -5.800214 -9.003379

running_var f4 [4]
00000000: 4190 3642 420c dc41 1897 9741 a8a3 eb41
45.640873 27.505985 18.948776 29.45491

weight f4 [4, 4, 4]
00000000: 9286 f7bf 2907 933e b3ce efbe 4fee 9abf
00000010: 2d14 fabf a7e4 a03e d2c7 c4bd cb5b 5dbf
00000020: 21f4 593e 2511 823e 806d 513f ff4a 61bf
00000030: 974c dbbe e552 943e a20a 613f 161b e03e
00000040: a2f1 99be 8fa2 b2be a5cc 85bf d2d6 72bf
00000050: e1fa 2dbf f26a 9cbf f2a5 7fbf 5542 7dbf
00000060: 6832 31be 394f 9dbe cb9d 44bf 9f28 a4be
00000070: a072 673f 43a8 593e 9ce2 743c c272 28be
00000080: 386d 063e 40e4 013f 06cb 2c3f 678b 97be
00000090: 7474 bb3e 5bf0 45bf 6261 78bf dce1 eabf
000000a0: 2ba2 b13e 9e4f 8bbe 6568 a73e 263c 8ebe
000000b0: b87b b03f 8090 e0be 661b 9f3d ab1f 75bf
000000c0: 68b4 14be 37b4 9dbc 79f1 023e 6ce6 f63e
000000d0: 013b bfbe cc94 8cbd c89c f3bf 880b 153f
000000e0: f638 1e3e e663 53bf a48d 2cbe 7537 d83e
000000f0: 7d9e af3f a444 fd3e 859e 9fbe 7f62 dc3e
-1.9337943 0.287164 -0.46837386 -1.2103976 -1.9537407 0.31424448 -0.09608425 -0.8646819
0.21284534 0.25403705 0.8180771 -0.8800506 -0.4283187 0.28969494 0.8790685 0.43770665
-0.30067164 -0.34889647 -1.0453078 -0.9485904 -0.67960936 -1.2220137 -0.9986259 -0.9892934
-0.17304385 -0.30724505 -0.7680327 -0.3206224 0.9040928 0.21255593 0.014946606 -0.16450027
0.13127601 0.50738907 0.6749729 -0.29598543 0.36612284 -0.7731988 -0.97023594 -1.8350177
0.34694037 -0.2720918 0.32696834 -0.27780265 1.3787756 -0.43860245 0.07768898 -0.95751446
-0.14521945 -0.019250972 0.12787427 0.48222673 -0.37349704 -0.06864318 -1.9032221 0.5822072
0.15451416 -0.8257431 -0.16850907 0.4222981 1.3720242 0.4946643 -0.31175628 0.43043897

bias f4 [4]
00000000: e71e 253f 2f69 3b3f edb4 50be 575f fa3e
0.6450028 0.7320737 -0.20381518 0.48900864

weight f4 [4]
00000000: 38f3 d73f 4f5f d53f c6cc eb3f e13f d03f
1.68711 1.6669711 1.8421867 1.6269494

bias f4 [4]
00000000: 245c dabd 0016 ec3d c214 293f 6d2f 91bf
-0.10662106 0.11527634 0.660473 -1.1342598

running_mean f4 [4]
00000000: a6cb 923e 10d8 bebd d549 02bf b253 883f
0.28670996 -0.093185544 -0.5089391 1.0650542

running_var f4 [4]
00000000: b119 283f 6a40 8b3e d95e 533f 16c8 a33e
0.656642 0.27197582 0.825666 0.3198859

weight f4 [1, 4, 4]
00000000: ccd6 193f d70b 6c3e 29df 813f 86f3 243f
00000010: b0c6 713f 444c 8a3e 25ab 5c3f 5777 b43d
00000020: 82a8 a43f 13bb 3d3f 4399 2cbd 70e0 a83d
00000030: 0d77 d83f 4aaa b43f 8885 2f3e 1e67 2b3c
0.6009338 0.23051392 1.0146228 0.6443409 0.944438 0.2701131 0.86198646 0.08811825
1.2863925 0.7411358 -0.04213835 0.08245933 1.6911331 1.4114468 0.17140782 0.010461597

weight f4 [1, 63]
00000000: cce0 5ac0 6a73 7940 abc7 3840 f09a 613f
00000010: 9e14 b0bd 4e50 eebe 7c7c abbd 57e7 113e
00000020: cda4 813e 5386 a53b b913 3bbd c0f6 433d
00000030: b2d8 f93d 5a4c f73e 5d24 033d f637 08be
00000040: e9cb 4dbd 2fa6 143e ff03 a13e c2e5 023e
00000050: 97c7 a23e 8f7e 233e 1f32 3e3e ea4d 0e3e
00000060: 7fd2 e93d a8cc 503e bd01 c2bb 3307 9e3e
00000070: a6db 8ebe 9f32 393e 48ab 863d e6d0 2e3f
00000080: b518 073e a1a5 893e 24d5 3a3e 82c6 f23e
00000090: 0426 58be 5ebc dbbe d3e4 3a3f a808 e6bb
000000a0: 9707 6dbc afaf 043f c536 173e 9184 8a3f
000000b0: 8f61 0abf be63 8c3e 151d acbe f791 213e
000000c0: de25 743d 2d27 f23e cdf3 22bd 99f5 1b3f
000000d0: eb3a 2fbe bded 5f3e 9801 40be 5173 7c3d
000000e0: 3efa 873c 50c4 65be 6e4e d93e 004d 2c3f
000000f0: 9db8 053f 2635 bcbd c9d6 5ebf
-3.4199705 3.8976693 2.8871868 0.8812704 -0.085976824 -0.46545643 -0.08373353 0.14248405
0.25321046 0.005051413 -0.045673106 0.04784274 0.121995345 0.4830044 0.0320171 -0.13302597
-0.050243292 0.14516519 0.3144836 0.12782958 0.317929 0.15966247 0.18573807 0.1389691
0.11417102 0.2039057 -0.0059206174 0.30864868 -0.27901953 0.18085717 0.06575638 0.68287504
0.13193019 0.26884177 0.18245369 0.47417074 -0.21108252 -0.4291715 0.7300541 -0.007020075
-0.014467142 0.5183057 0.14766987 1.0821706 -0.5405511 0.27419847 -0.33615938 0.15778337
0.059606425 0.47295514 -0.039783288 0.6092163 -0.17112319 0.21868034 -0.18750608 0.06163341
0.016598817 -0.22438169 0.4244265 0.6730499 0.5223482 -0.09189825 -0.87046486
