pth/tmp_80_6.38.pth (torch, 3479 bytes, 5 tensors)

weight f4 [6, 3]
0	0x3e98aa85	0.29817596
1	0x3f4aa806	0.79162633
2	0xbf7a0ab6	-0.97672594
3	0x3a18048e	0.00057990185
4	0x3f073351	0.5281268
5	0xbf4e2c43	-0.8053629
6	0xbf4c047e	-0.79694355
7	0x3f918651	1.1369115
8	0xbf00391d	-0.5008715
9	0x3f5d5e8d	0.864724
10	0x3fc9ff96	1.5781124
11	0xbfda3c52	-1.7049658
12	0x389cc51b	7.4753734e-05
13	0x37e8dda7	2.775977e-05
14	0x37db7983	2.6163418e-05
15	0xbe335db2	-0.1751621
16	0x3f0aa6de	0.5416087
17	0xbf7e0065	-0.9921935

bias f4 [6]
0	0x4015f414	2.3430223
1	0x3fde142a	1.7349904
2	0x402de15f	2.7168806
3	0x3f32a47b	0.6978223
4	0xb738de17	-1.1018964e-05
5	0x3fdbcfbb	1.7172769

weight f4 [6, 6]
0	0xb6a17a65	-4.8124225e-06
1	0x389ee4e8	7.576664e-05
2	0x393b4e33	0.00017862841
3	0x3897464e	7.213336e-05
4	0xb7305395	-1.0509878e-05
5	0x38d5bcac	0.00010191774
6	0x3fdb032a	1.711034
7	0x3f819195	1.0122553
8	0x3fce2035	1.6103579
9	0x3f8e1a30	1.1101742
10	0x3862d866	5.4084136e-05
11	0x3f9a1ffe	1.2041013
12	0x3fca955e	1.5826833
13	0x3f7d04e7	0.98835605
14	0x3faaf808	1.3356943
15	0x3f9329fc	1.1497188
16	0x3910c621	0.00013806719
17	0x3f964518	1.1739836
18	0x3f8e3f00	1.1112976
19	0x3f856bd8	1.0423536
20	0x3fa57343	1.29258
21	0x3f7410ed	0.95338327
22	0x385725c9	5.1295185e-05
23	0x3f9f4fdc	1.2446246
24	0x3f667c22	0.9003316
25	0x3f8fe933	1.1243042
26	0x3fd2b9ee	1.6462991
27	0x3f7d680c	0.9898689
28	0x389b9fa6	7.420713e-05
29	0x3fa7da07	1.3113412
30	0x3f88dd6c	1.0692573
31	0x3f871f6f	1.0556468
32	0x3fa740f6	1.30667
33	0x3f948d44	1.1605611
34	0x391154b1	0.00013859828
35	0x3f9f8c2c	1.2464652

bias f4 [6]
0	0xb9830be1	-0.00024995118
1	0x3f6d7cd4	0.927686
2	0x3f81d443	1.0142902
3	0x3f667e5e	0.9003657
4	0x3f9b6df7	1.2142934
5	0x3f8e3044	1.110848

weight f4 [1, 6]
0	0xb8b11fb3	-8.445922e-05
1	0x3fddf05c	1.7338977
2	0x3fd41bf1	1.6571027
3	0x3fe82c78	1.8138571
4	0x40096fd0	2.1474495
5	0x3fed3142	1.8530657
