pth/tmp_40_5.97.pth (torch, 3479 bytes, 5 tensors)

weight f4 [6, 3]
000000 d5 69 5e be 8e 4e 8e 3f a2 51 05 bf b7 ab fc 3d
       -0.21720059 1.1117723 -0.52077687 0.123374395
000010 fc 4e 9f 3f 06 b8 00 bf 80 04 c8 3e fb 87 2f 3f
       1.2445979 -0.502808 0.39065933 0.68566865
000020 54 49 8e bf 0e fb 44 3f 09 2d a8 3e 1f 1c 37 bf
       -1.1116128 0.7694558 0.3284686 -0.71527284
000030 a1 f1 4e bf c4 0b 4e 3e dd 83 f7 be 1d a0 ed be
       -0.80837446 0.20121676 -0.4834279 -0.4641122
000040 f6 f9 8e 3f b8 ad 53 bf
       1.1170032 -0.8268695

bias f4 [6]
000000 cc f4 cc 3f 39 3c de 3f 28 bd ec 3f 62 22 21 40
       1.6012206 1.7362128 1.8495226 2.5177236
000010 49 0c da 3f f0 28 f5 3f
       1.7034999 1.9153118

weight f4 [6, 6]
000000 20 17 4b 3f bf 18 bf 3f 16 3b c0 3f 66 00 c4 3f
       0.7933216 1.4929427 1.5018032 1.5312622
000010 aa 91 11 3f 98 06 98 3f df b2 8f 3f e4 01 7d 3f
       0.5686289 1.1877012 1.1226462 0.9883101
000020 d1 dc 8c 3f 46 83 57 3f fe 8b 92 3f 79 61 85 3f
       1.1004888 0.8418468 1.1448972 1.0420371
000030 76 20 0e 3f 73 98 d5 3e 41 9b 80 3f db 60 87 3f
       0.5551828 0.41717872 1.004738 1.0576433
000040 aa 0e 76 3e 05 35 57 3e 28 e7 0a 3f 13 3a a6 3f
       0.24029031 0.21016319 0.54258966 1.2986473
000050 6f ed c4 3f 8c 7c 82 3f 6c 9e 8e 3f f7 3b 96 3f
       1.5384959 1.0194259 1.1142097 1.173705
000060 03 1e a6 3f 66 6e ac 3f d3 c0 ad 3f e5 93 d3 3f
       1.2977909 1.3471191 1.357447 1.6529509
000070 00 4c 88 3f 3f ac 85 3f 1e 10 ac 3f 50 e8 b5 3f
       1.0648193 1.044319 1.3442419 1.4211521
000080 cd b1 d1 3f fd 51 b5 3f 62 21 a5 3f a8 01 77 3f
       1.6382385 1.4165646 1.2900813 0.964869

bias f4 [6]
000000 66 e7 a0 3f 1f 11 c3 3f 55 72 76 3f 3b 63 b9 3f
       1.2570617 1.52396 0.96268207 1.4483408
000010 81 a0 9a 3f f1 e9 8d 3f
       1.2080232 1.1087018

weight f4 [1, 6]
000000 1c e6 b7 3f 5e 76 97 3f 82 6c 80 3f 66 1e c7 3f
       1.4367099 1.1832998 1.0033114 1.5556152
000010 37 10 ac 3f 51 4f ab 3f
       1.3442448 1.338358
