pth/tmp_270_4.85.pth (torch, 3479 bytes, 5 tensors)

weight f4 [6, 3]
000000 c6 c5 31 3f 58 8b 42 3e 90 c3 63 bf 3f ef 9b 3f
       0.69442403 0.18998468 -0.8897028 1.2182387
000010 66 c9 22 40 ce 07 c7 3e 41 ba 8f 3f ff ea 7e 3f
       2.5435424 0.38873142 1.1228715 0.99577326
000020 48 f6 a3 bf 44 be 03 3c 49 cd 02 3e 27 cf 92 bf
       -1.2809534 0.008040968 0.12773623 -1.1469468
000030 80 fe 45 3d da 63 05 40 21 d6 84 bb 0c 50 a4 be
       0.048338413 2.0842195 -0.0040538465 -0.3209232
000040 fb 8e 9c 3b 12 ea ae bf
       0.004777787 -1.3665183

bias f4 [6]
000000 b5 94 47 40 7d c2 21 40 f3 1d 4f 40 e3 44 3f 40
       3.1184514 2.5274956 3.236203 2.9885795
000010 a1 80 51 40 d0 42 4f 40
       3.273476 3.238453

weight f4 [6, 6]
000000 88 09 05 3f 2a d9 87 c0 df 1f bf 3d 12 22 96 3f
       0.5196767 -4.2452593 0.09332251 1.1729147
000010 c8 48 65 bf a7 85 8c 3f 59 d4 42 be 08 3f 38 be
       -0.8956418 1.0978287 -0.19026317 -0.17992795
000020 2a 13 a6 be e2 23 fd bd cd ea e1 3d 46 41 be 3e
       -0.32436496 -0.1236036 0.11031113 0.37159175
000030 11 b5 fc bc f6 52 bc bc f4 4d b7 be f1 55 99 be
       -0.030848058 -0.022988778 -0.3580166 -0.2994838
000040 cd 5d be bd 01 3b 17 bb 7a 16 0f 40 e9 e1 07 40
       -0.09295235 -0.002307594 2.2357469 2.1231635
000050 d3 12 23 40 f9 dd fd 3f f4 64 16 40 25 55 10 40
       2.548024 1.9833366 2.3499117 2.2551968
000060 86 f8 c1 bd 27 59 ac 3d e5 cc 0b 3e 0b 71 59 be
       -0.0947123 0.08415442 0.1365238 -0.21234529
000070 28 d8 0c be fc b6 22 3e 3c 36 66 3c d6 b5 cc 3d
       -0.13754332 0.15890115 0.014051016 0.0999562
000080 e0 1b d0 3d 4c 55 89 be a8 c3 0a be 39 55 18 3e
       0.10161567 -0.2682289 -0.135512 0.1487626

bias f4 [6]
000000 a5 b9 5e 3f bd 63 c0 be 94 ab 3b bd 94 a3 10 40
       0.8700202 -0.37576094 -0.045817927 2.259984
000010 59 f8 e3 bd 1a 60 39 be
       -0.11131353 -0.18103066

weight f4 [1, 6]
000000 42 61 3f c0 22 43 16 be 2a b0 82 be 33 a9 2b 40
       -2.9903111 -0.14674047 -0.25525028 2.682202
000010 df ab 23 be a1 b5 55 be
       -0.15983532 -0.20870067
