pth/tmp_60_4.88.pth (torch, 3479 bytes, 5 tensors)

weight f4 [6, 3]
00000000: 838f 6d3f 40b8 e43d 5aac 22bf ded9 4f3f
00000010: 0371 2d40 29b0 69be 5d67 9a3f 3285 773f
00000020: 8de5 96bf a2f8 053f f1e8 05bd 1223 1fbf
00000030: d2bd 85bd 32d3 0840 b2f6 32be 0fa7 ae3d
00000040: e641 fcbd 3c03 73bf
0.92797107 0.111679554 -0.6354424 0.81191814 2.7100227 -0.22821106 1.2062794 0.96687615
-1.1788803 0.5233251 -0.032692853 -0.6216289 -0.06530346 2.1378903 -0.1747692 0.08527958
-0.12317257 -0.9492681

bias f4 [6]
00000000: d547 4a40 1d59 1a40 8b8e 4f40 2e6c 4640
00000010: a341 4e40 fe42 5440
3.1606343 2.411689 3.2430751 3.1003528 3.2227561 3.3165889

weight f4 [6, 6]
00000000: b6e0 173f f4f3 79c0 9027 ad3d bcd9 923f
00000010: 999b 73bf 9de4 773f 59d4 42be 083f 38be
00000020: 2a13 a6be e223 fdbd cdea e13d 4641 be3e
00000030: 11b5 fcbc f652 bcbc f44d b7be f155 99be
00000040: cd5d bebd 013b 17bb e829 1040 c97a 0a40
00000050: b87a 2340 c917 fe3f dc00 1740 08a5 0f40
00000060: 86f8 c1bd 2759 ac3d e5cc 0b3e 0b71 59be
00000070: 28d8 0cbe fcb6 223e 3c36 663c d6b5 cc3d
00000080: e01b d03d 4c55 89be a8c3 0abe 3955 183e
0.59327257 -3.9055147 0.084548116 1.1472697 -0.951593 0.9683321 -0.19026317 -0.17992795
-0.32436496 -0.1236036 0.11031113 0.37159175 -0.030848058 -0.022988778 -0.3580166 -0.2994838
-0.09295235 -0.002307594 2.2525578 2.1637442 2.5543652 1.9851009 2.3594275 2.2444477
-0.0947123 0.08415442 0.1365238 -0.21234529 -0.13754332 0.15890115 0.014051016 0.0999562
0.10161567 -0.2682289 -0.135512 0.1487626

bias f4 [6]
00000000: ece4 853f bd63 c0be 94ab 3bbd 6803 0e40
00000010: 59f8 e3bd 1a60 39be
1.0460486 -0.37576094 -0.045817927 2.218958 -0.11131353 -0.18103066

weight f4 [1, 6]
00000000: 218f 34c0 2243 16be 2ab0 82be 3591 2c40
00000010: dfab 23be a1b5 55be
-2.821236 -0.14674047 -0.25525028 2.6963627 -0.15983532 -0.20870067
