pth/tmp_160_4.87.pth (torch, 3479 bytes, 5 tensors)

weight f4 [6, 3]
000000 bc 0d 4e 3f f3 48 12 3e c5 fc 3f bf 16 20 83 3f
       0.80489707 0.1428564 -0.7499507 1.0244167
000010 41 10 2a 40 9d 62 ca 3d 0f 7a 95 3f 6a f2 79 3f
       2.657242 0.0988209 1.1677874 0.9763552
000020 83 93 9b bf 3a 3a 88 3e 8b 22 c9 3c bf 2c 62 bf
       -1.2154392 0.26606923 0.024552604 -0.8834953
000030 e2 78 6c ba fe c3 07 40 be 5f 99 bd da b1 e3 bd
       -0.00090206985 2.1213374 -0.074889645 -0.11117907
000040 14 75 a0 bd 9b 3b 93 bf
       -0.07834831 -1.1502565

bias f4 [6]
000000 94 8f 49 40 de b5 1d 40 bd b6 4f 40 b4 9d 43 40
       3.1493883 2.4642253 3.2455285 3.0565004
000010 26 e7 4f 40 6b 76 52 40
       3.2484832 3.2884777

weight f4 [6, 6]
000000 91 7a 0d 3f 53 59 82 c0 a2 ba b0 3d 2f ac 92 3f
       0.55265146 -4.073404 0.086293474 1.1458796
000010 06 de 6e bf a2 c1 83 3f 59 d4 42 be 08 3f 38 be
       -0.9330753 1.0293467 -0.19026317 -0.17992795
000020 2a 13 a6 be e2 23 fd bd cd ea e1 3d 46 41 be 3e
       -0.32436496 -0.1236036 0.11031113 0.37159175
000030 11 b5 fc bc f6 52 bc bc f4 4d b7 be f1 55 99 be
       -0.030848058 -0.022988778 -0.3580166 -0.2994838
000040 cd 5d be bd 01 3b 17 bb e7 ab 0f 40 64 9d 09 40
       -0.09295235 -0.002307594 2.244867 2.1502314
000050 15 3f 23 40 5b be fd 3f d7 e4 16 40 ed da 0f 40
       2.5507252 1.9823717 2.3577173 2.2477372
000060 86 f8 c1 bd 27 59 ac 3d e5 cc 0b 3e 0b 71 59 be
       -0.0947123 0.08415442 0.1365238 -0.21234529
000070 28 d8 0c be fc b6 22 3e 3c 36 66 3c d6 b5 cc 3d
       -0.13754332 0.15890115 0.014051016 0.0999562
000080 e0 1b d0 3d 4c 55 89 be a8 c3 0a be 39 55 18 3e
       0.10161567 -0.2682289 -0.135512 0.1487626

bias f4 [6]
000000 07 ac 77 3f bd 63 c0 be 94 ab 3b bd 75 7b 0f 40
       0.9674687 -0.37576094 -0.045817927 2.2419102
000010 59 f8 e3 bd 1a 60 39 be
       -0.11131353 -0.18103066

weight f4 [1, 6]
000000 99 ad 38 c0 22 43 16 be 2a b0 82 be 9f 32 2c 40
       -2.8855956 -0.14674047 -0.25525028 2.6905897
000010 df ab 23 be a1 b5 55 be
       -0.15983532 -0.20870067
