pth/tmp_140_6.36.pth (torch, 3479 bytes, 5 tensors)

weight f4 [6, 3]
000000 91 5b 55 3e 9c 86 48 3f c1 10 7a bf 6a 2f 57 37
       0.20835711 0.783304 -0.97681814 1.2826038e-05
000010 e1 de fe 3e 84 91 48 bf 82 70 37 bf 4d 1c 91 3f
       0.49779418 -0.7834704 -0.7165605 1.1336762
000020 a3 6a 05 bf 18 a1 49 3f 8d 7a ca 3f d0 fc df bf
       -0.5211584 0.78761435 1.581865 -1.7499027
000030 59 d6 cb b8 44 e0 83 37 64 1c 8c b9 7f d1 af bd
       -9.71972e-05 1.5720849e-05 -0.00026724034 -0.0858488
000040 65 8a 07 3f 19 fa 7c bf
       0.5294555 -0.9881912

bias f4 [6]
000000 df 88 19 40 b4 02 e2 3f 11 78 32 40 9f f0 2c 3f
       2.398979 1.7657075 2.7885783 0.6755466
000010 cf 0f 7f 37 c2 6a e2 3f
       1.5202865e-05 1.768883

weight f4 [6, 6]
000000 75 e5 c4 b8 8d 2f f2 38 fe ea ab 38 b3 cb 8d 39
       -9.388748e-05 0.00011548316 8.197686e-05 0.00027045383
000010 9d 1d 8a b9 9b e4 8b b9 1e bc d4 3f 3e f2 5e 3f
       -0.00026343475 -0.0002668247 1.6619909 0.8708838
000020 d8 10 cb 3f 3e a6 82 3f f1 39 e8 b8 90 4e 89 3f
       1.5864515 1.0206983 -0.000110734145 1.07271
000030 65 df c2 3f 97 f9 54 3f 88 ca a6 3f c1 df 84 3f
       1.5224425 0.83193344 1.3030558 1.0380784
000040 2f f0 2e b9 2b 88 83 3f 67 29 89 3f 1e dc 69 3f
       -0.00016683408 1.027593 1.071576 0.913515
000050 c6 54 a3 3f 24 df 61 3f 4b 92 1f b9 c0 18 90 3f
       1.2760246 0.8823111 -0.0001521792 1.1257553
000060 ab 65 65 3f 7e 89 85 3f da 29 d4 3f f2 3a 7d 3f
       0.8960826 1.0432584 1.6575272 0.9891807
000070 87 4a f1 38 19 bd 9e 3f 5e 6e 84 3f ee 07 6f 3f
       0.00011505657 1.2401458 1.0346181 0.93371475
000080 df a8 a5 3f 96 c0 8c 3f 7a c7 8b b8 56 36 91 3f
       1.294216 1.0996273 -6.665192e-05 1.1344707

bias f4 [6]
000000 66 e3 d0 38 dd 6e 05 3f c1 d7 14 3f cf 19 04 3f
       9.960569e-05 0.5212229 0.58141714 0.5160188
000010 0a fb 69 3f 57 1b 3d 3f
       0.9139868 0.7386984

weight f4 [1, 6]
000000 83 61 5d 39 f2 c7 ed 3f 7d 48 e3 3f ca d8 f5 3f
       0.00021112528 1.8576643 1.7756497 1.9206784
000010 33 d8 10 40 c3 d1 fb 3f
       2.2631958 1.9673389
