pth/tmp_480_4.49.pth (torch, 3479 bytes, 5 tensors)

weight f4 [6, 3]
0	0x3f60f4e8	0.878737
1	0x3e1b1a99	0.15146865
2	0xbf4cf8fe	-0.8006743
3	0x3f63f7e5	0.8905013
4	0x401d3fc5	2.4570172
5	0x3f056316	0.5210432
6	0x40020f98	2.0322018
7	0x3fbfdc9c	1.49892
8	0xbf83f1ad	-1.0308129
9	0x3ef32444	0.47488606
10	0x3e88fee5	0.2675697
11	0xbf883c1f	-1.0643348
12	0xbd88dd25	-0.06682805
13	0x3ff30cde	1.8988302
14	0xbe01418b	-0.12622659
15	0xbec3c2c0	-0.3823452
16	0xbf0e3d7b	-0.5556256
17	0xbf8e1aa9	-1.1101886

bias f4 [6]
0	0x4056404c	3.3476744
1	0x4032e8f4	2.7954683
2	0x403cbed6	2.9491477
3	0x4048855f	3.1331403
4	0x405ba7ca	3.432116
5	0x406d2b4f	3.7057683

weight f4 [6, 6]
0	0x3f019c0f	0.5062875
1	0xc07a4ced	-3.9109452
2	0x3f25e6b3	0.64805144
3	0x3f82bef2	1.0214522
4	0xbfe82409	-1.8135997
5	0x3f25007b	0.6445386
6	0xbe42d459	-0.19026317
7	0xbe383f08	-0.17992795
8	0xbea6132a	-0.32436496
9	0xbdfd23e2	-0.1236036
10	0x3de1eacd	0.11031113
11	0x3ebe4146	0.37159175
12	0xbcfcb511	-0.030848058
13	0xbcbc52f6	-0.022988778
14	0xbeb74df4	-0.3580166
15	0xbe9955f1	-0.2994838
16	0xbdbe5dcd	-0.09295235
17	0xbb173b01	-0.002307594
18	0x401a7950	2.4136543
19	0x4000fac0	2.0153046
20	0x40296d9e	2.6473155
21	0x4008827e	2.1329646
22	0x400de3bb	2.2170246
23	0x4016f050	2.3584175
24	0x3f061fb9	0.52392155
25	0xbff73f88	-1.9316263
26	0xbf347af1	-0.70500094
27	0x3f276950	0.6539507
28	0xbdbf4309	-0.09338958
29	0x3fdbdac3	1.7176136
30	0xbc911df6	-0.017714482
31	0x3d8ba7e1	0.0681913
32	0x3d8f0d98	0.06985015
33	0xbe9998d7	-0.2999942
34	0xbe2b4a93	-0.16727667
35	0x3def9c37	0.116997175

bias f4 [6]
0	0x3d3b1bd8	0.04568085
1	0xbec063bd	-0.37576094
2	0xbd3bab94	-0.045817927
3	0x40110b8e	2.2663302
4	0x3ffb7500	1.964508
5	0xbe59e6eb	-0.21279494

weight f4 [1, 6]
0	0xc026345f	-2.5969465
1	0xbe164322	-0.14674047
2	0xbe82b02a	-0.25525028
3	0x402e72d2	2.725758
4	0xc00bc39d	-2.1838143
5	0xbe39e702	-0.18154529
