pth/tmp_30_5.96.pth (torch, 3479 bytes, 5 tensors)

weight f4 [6, 3]
0	0xbe5880af	-0.21142839
1	0x3f8e68e7	1.1125764
2	0xbf068c94	-0.52558255
3	0x3e04c58c	0.12965983
4	0x3f9f59a2	1.2449229
5	0xbf0214a7	-0.5081276
6	0x3ec2cfde	0.38049215
7	0x3f28a9c1	0.65884024
8	0xbf8e2dd7	-1.1107739
9	0x3f47128a	0.77762663
10	0x3ea5b98f	0.32368132
11	0xbf38bda1	-0.7216435
12	0xbf4d656a	-0.8023287
13	0x3e4e7a7b	0.2016391
14	0xbefa2581	-0.48856738
15	0xbeea9193	-0.4581419
16	0x3f8f0d01	1.1175843
17	0xbf54f8c9	-0.83192116

bias f4 [6]
0	0x3fccb55c	1.5992846
1	0x3fddee98	1.7338438
2	0x3fee94e3	1.8639187
3	0x4021015a	2.5157075
4	0x3fd9d1f4	1.7017198
5	0x3ff4e818	1.9133329

weight f4 [6, 6]
0	0x3f4bb4de	0.79572856
1	0x3fbf8300	1.4961853
2	0x3fc0e783	1.5070652
3	0x3fc468a9	1.534444
4	0x3f11946e	0.5686711
5	0x3f983a31	1.1892759
6	0x3f900dd8	1.1254225
7	0x3f7dee2e	0.9919156
8	0x3f8d8fec	1.1059546
9	0x3f58617f	0.8452377
10	0x3f929915	1.1452967
11	0x3f85a114	1.0439782
12	0x3f0edea3	0.55808467
13	0x3ed788fe	0.42096704
14	0x3f815e61	1.0106927
15	0x3f87e040	1.0615311
16	0x3e76b20a	0.24091354
17	0x3e595fd6	0.21227965
18	0x3f0b7e30	0.5448942
19	0x3fa6a0a1	1.301777
20	0x3fc59425	1.5435835
21	0x3f82df25	1.0224348
22	0x3f8e9b8a	1.1141217
23	0x3f966bf2	1.1751692
24	0x3fa6700f	1.3002948
25	0x3facdbd6	1.3504589
26	0x3fae6eb9	1.362754
27	0x3fd3fdc8	1.6561823
28	0x3f885064	1.0649533
29	0x3f85e31a	1.0459931
30	0x3fac6258	1.3467512
31	0x3fb655b4	1.4244905
32	0x3fd25f56	1.6435344
33	0x3fb5bb9a	1.4197876
34	0x3fa525cd	1.2902161
35	0x3f776f43	0.96654147

bias f4 [6]
0	0x3fa05b5e	1.2527883
1	0x3fc28f8d	1.5200058
2	0x3f7586aa	0.95908606
3	0x3fb8d213	1.443911
4	0x3f9a170e	1.2038286
5	0x3f8d6074	1.104506

weight f4 [1, 6]
0	0x3fb84b36	1.4397953
1	0x3f97cf13	1.1860069
2	0x3f810eb0	1.0082607
3	0x3fc77bef	1.5584697
4	0x3fac6ab7	1.3470067
5	0x3fabaa05	1.3411261
