pth/tmp_260_4.85.pth (torch, 3479 bytes, 5 tensors)

weight f4 [6, 3]
0	0x3f348be9	0.70525986
1	0x3e40a5aa	0.18813196
2	0xbf5ed6e9	-0.87046677
3	0x3f9a4508	1.2052317
4	0x40236c48	2.553484
5	0x3eba6053	0.36401615
6	0x3f906e4b	1.1283659
7	0x3f7f1e7b	0.99655885
8	0xbfa25193	-1.2681144
9	0x3cf9eaaf	0.030507414
10	0x3dfc00da	0.1230485
11	0xbf8eb98f	-1.1150378
12	0x3d401c44	0.046901956
13	0x4005b828	2.089365
14	0xbbb99924	-0.0056640077
15	0xbe9a9383	-0.30190668
16	0x3abd03fa	0.0014420741
17	0xbfab644e	-1.3389986

bias f4 [6]
0	0x40478e00	3.118042
1	0x4021453e	2.5198512
2	0x404f0020	3.2343826
3	0x403f7377	2.9914224
4	0x40512ffa	3.2685533
5	0x404f582d	3.2397568

weight f4 [6, 6]
0	0x3f056f90	0.52123356
1	0xc0871e64	-4.22246
2	0x3dbb9e4b	0.09161051
3	0x3f958e84	1.1684117
4	0xbf64cd7d	-0.8937605
5	0x3f8b93b8	1.0904455
6	0xbe42d459	-0.19026317
7	0xbe383f08	-0.17992795
8	0xbea6132a	-0.32436496
9	0xbdfd23e2	-0.1236036
10	0x3de1eacd	0.11031113
11	0x3ebe4146	0.37159175
12	0xbcfcb511	-0.030848058
13	0xbcbc52f6	-0.022988778
14	0xbeb74df4	-0.3580166
15	0xbe9955f1	-0.2994838
16	0xbdbe5dcd	-0.09295235
17	0xbb173b01	-0.002307594
18	0x400ee7ec	2.2329054
19	0x40082450	2.1272163
20	0x4022dc4c	2.5446959
21	0x3ffd3ff1	1.9785138
22	0x401662d2	2.3497815
23	0x400ff443	2.2492836
24	0xbdc1f886	-0.0947123
25	0x3dac5927	0.08415442
26	0x3e0bcce5	0.1365238
27	0xbe59710b	-0.21234529
28	0xbe0cd828	-0.13754332
29	0x3e22b6fc	0.15890115
30	0x3c66363c	0.014051016
31	0x3dccb5d6	0.0999562
32	0x3dd01be0	0.10161567
33	0xbe89554c	-0.2682289
34	0xbe0ac3a8	-0.135512
35	0x3e185539	0.1487626

bias f4 [6]
0	0x3f6134db	0.87971276
1	0xbec063bd	-0.37576094
2	0xbd3bab94	-0.045817927
3	0x401058e0	2.2554245
4	0xbde3f859	-0.11131353
5	0xbe39601a	-0.18103066

weight f4 [1, 6]
0	0xc03dee95	-2.967687
1	0xbe164322	-0.14674047
2	0xbe82b02a	-0.25525028
3	0x402b833d	2.6798851
4	0xbe23abdf	-0.15983532
5	0xbe55b5a1	-0.20870067
