pth/tmp_250_4.86.pth (torch, 3479 bytes, 5 tensors)

weight f4 [6, 3]
0.71707606 0.17929745 -0.86610943 1.187988 2.5647469 0.33823723 1.1338403 0.99151176
-1.2683059 0.059665363 0.105513304 -1.1060381 0.044798177 2.0898507 -0.018230641 -0.27734092
-0.013732181 -1.3330674
00000000: 4c92 373f c099 373e 59b9 5dbf fe0f 983f
00000010: d024 2440 6e2d ad3e ae21 913f b7d3 7d3f
00000020: d957 a2bf ab63 743d 5c17 d83d a892 8dbf
00000030: 4b7e 373d 1dc0 0540 6d58 95bc a1ff 8dbe
00000040: f1fc 60bc f4a1 aabf

bias f4 [6]
3.1254518 2.5153592 3.239506 3.0014713 3.2685597 3.248093
00000000: 6707 4840 a5fb 2040 1154 4f40 1b18 4040
00000010: 1530 5140 c1e0 4f40

weight f4 [6, 6]
0.52451175 -4.2110767 0.091727965 1.1656574 -0.9010424 1.0846868 -0.19026317 -0.17992795
-0.32436496 -0.1236036 0.11031113 0.37159175 -0.030848058 -0.022988778 -0.3580166 -0.2994838
-0.09295235 -0.002307594 2.2391703 2.1282237 2.5504892 1.9842931 2.3503451 2.2547526
-0.0947123 0.08415442 0.1365238 -0.21234529 -0.13754332 0.15890115 0.014051016 0.0999562
0.10161567 -0.2682289 -0.135512 0.1487626
00000000: 6746 063f 24c1 86c0 dfdb bb3d 4334 953f
00000010: b7aa 66bf 04d7 8a3f 59d4 42be 083f 38be
00000020: 2a13 a6be e223 fdbd cdea e13d 4641 be3e
00000030: 11b5 fcbc f652 bcbc f44d b7be f155 99be
00000040: cd5d bebd 013b 17bb 914e 0f40 d134 0840
00000050: 373b 2340 51fd fd3f 0e6c 1640 de4d 1040
00000060: 86f8 c1bd 2759 ac3d e5cc 0b3e 0b71 59be
00000070: 28d8 0cbe fcb6 223e 3c36 663c d6b5 cc3d
00000080: e01b d03d 4c55 89be a8c3 0abe 3955 183e

bias f4 [6]
0.888335 -0.37576094 -0.045817927 2.2565176 -0.11131353 -0.18103066
00000000: ec69 633f bd63 c0be 94ab 3bbd c96a 1040
00000010: 59f8 e3bd 1a60 39be

weight f4 [1, 6]
-2.9628096 -0.14674047 -0.25525028 2.6846056 -0.15983532 -0.20870067
00000000: ac9e 3dc0 2243 16be 2ab0 82be 94d0 2b40
00000010: dfab 23be a1b5 55be
