pth/tmp_10_6.61.pth (torch, 3479 bytes, 5 tensors)

weight f4 [6, 3]
0.5149342 0.8896612 -0.9094889 0.1050086 0.6410288 -0.7512843 -0.7905149 1.2321074
-0.4096163 0.64203995 0.8040598 -1.2639399 -8.513342e-05 -2.7539736e-05 -0.00012604785 -0.17028937
0.6381827 -0.92030925
00000000: bad2 033f d6c0 633f 44d4 68bf c00e d73d
00000010: 771a 243f 2b54 40bf 2f5f 4abf b2b5 9d3f
00000020: 3ab9 d1be bb5c 243f ddd6 4d3f c8c8 a1bf
00000030: a889 b2b8 2205 e7b7 b62b 04b9 5660 2ebe
00000040: f15f 233f 6399 6bbf

bias f4 [6]
2.2492356 1.6571794 2.6054645 1.6856452 -0.00010539468 1.6198132
00000000: 7af3 0f40 741e d43f eebf 2640 39c3 d73f
00000010: 5707 ddb8 0a56 cf3f

weight f4 [6, 6]
1.6837941e-05 -9.495584e-05 -6.65787e-05 -0.00014422205 -0.0001459463 -0.00013918673 1.7904459 1.1860286
1.6277436 1.0825124 -7.4358804e-06 1.3490473 1.677346 1.1826695 1.3645483 1.1475046
-0.00015621501 1.3397839 1.1744465 1.1940519 1.2973825 0.89884883 -7.6911114e-05 1.3671678
0.9153451 1.2108741 1.6142917 0.8549512 -1.3390042e-05 1.3677897 1.1265217 1.1993377
1.3068093 1.0961118 3.30771e-05 1.3608977
00000000: 343f 8d37 0723 c7b8 2ba0 8bb8 503a 17b9
00000010: 2909 19b9 a7f2 11b9 552d e53f c9cf 973f
00000020: e759 d03f c48f 8a3f ba81 f9b6 95ad ac3f
00000030: 46b3 d63f b761 973f 85a9 ae3f 6ee1 923f
00000040: a6cd 23b9 0a7e ab3f 4354 963f b1d6 983f
00000050: a110 a63f f51a 663f 574b a1b8 5bff ae3f
00000060: 0e54 6a3f ecfd 9a3f 1ca1 ce3f 15de 5a3f
00000070: cba5 60b7 bc13 af3f dd31 903f e683 993f
00000080: 8745 a73f 644d 8c3f 44bc 0a38 e531 ae3f

bias f4 [6]
-8.864759e-05 1.4331281 1.5547695 1.3679562 1.5705206 1.5647082
00000000: 50e8 b9b8 be70 b73f b002 c73f 3019 af3f
00000010: d206 c93f 5c48 c83f

weight f4 [1, 6]
-0.00017945188 1.5331279 1.4582638 1.6291915 1.9587405 1.6587
00000000: 3f2b 3cb9 893d c43f 63a8 ba3f 5989 d03f
00000010: 02b8 fa3f 4850 d43f
