pth/tmp_290_4.85.pth (torch, 3479 bytes, 5 tensors)

weight f4 [6, 3]
0	0x3f2739c7	0.65322536
1	0x3e5a2418	0.21302831
2	0xbf6ab808	-0.9168706
3	0x3fa0e914	1.257113
4	0x40209bb8	2.5095043
5	0x3ee9b957	0.45649216
6	0x3f8c9598	1.0983152
7	0x3f810ed4	1.008265
8	0xbfa58fe2	-1.2934535
9	0xbd88c7d9	-0.06678743
10	0x3e271345	0.16315944
11	0xbf9ace31	-1.2094175
12	0x3d4a0097	0.04931697
13	0x4004dce0	2.0759811
14	0x3c456a88	0.012049325
15	0xbec511b9	-0.38490084
16	0x3d0cd062	0.034378417
17	0xbfb59d57	-1.4188641

bias f4 [6]
0	0x4046befd	3.105407
1	0x40230e85	2.5477612
2	0x404eb564	3.2298212
3	0x403d57d2	2.9584851
4	0x4051cd59	3.2781584
5	0x404db26f	3.2140157

weight f4 [6, 6]
0	0x3f0210c6	0.50806844
1	0xc089abee	-4.3022375
2	0x3dbb20c1	0.09137107
3	0x3f96e644	1.1789021
4	0xbf65e49b	-0.8980195
5	0x3f8e2f43	1.1108173
6	0xbe42d459	-0.19026317
7	0xbe383f08	-0.17992795
8	0xbea6132a	-0.32436496
9	0xbdfd23e2	-0.1236036
10	0x3de1eacd	0.11031113
11	0x3ebe4146	0.37159175
12	0xbcfcb511	-0.030848058
13	0xbcbc52f6	-0.022988778
14	0xbeb74df4	-0.3580166
15	0xbe9955f1	-0.2994838
16	0xbdbe5dcd	-0.09295235
17	0xbb173b01	-0.002307594
18	0x400e9834	2.2280397
19	0x40072725	2.1117642
20	0x4022a518	2.5413265
21	0x3ffd84e0	1.9806175
22	0x40162fcc	2.3466673
23	0x40104c87	2.2546709
24	0xbdc1f886	-0.0947123
25	0x3dac5927	0.08415442
26	0x3e0bcce5	0.1365238
27	0xbe59710b	-0.21234529
28	0xbe0cd828	-0.13754332
29	0x3e22b6fc	0.15890115
30	0x3c66363c	0.014051016
31	0x3dccb5d6	0.0999562
32	0x3dd01be0	0.10161567
33	0xbe89554c	-0.2682289
34	0xbe0ac3a8	-0.135512
35	0x3e185539	0.1487626

bias f4 [6]
0	0x3f563a00	0.8368225
1	0xbec063bd	-0.37576094
2	0xbd3bab94	-0.045817927
3	0x40108ddf	2.2586591
4	0xbde3f859	-0.11131353
5	0xbe39601a	-0.18103066

weight f4 [1, 6]
0	0xc0427771	-3.0385401
1	0xbe164322	-0.14674047
2	0xbe82b02a	-0.25525028
3	0x402b4536	2.6760993
4	0xbe23abdf	-0.15983532
5	0xbe55b5a1	-0.20870067
