pth/tmp_210_4.86.pth (torch, 3479 bytes, 5 tensors)

weight f4 [6, 3]
00000000: ef8c 423f 8ca8 243e 4c5a 51bf eccf 8f3f
00000010: 3dbd 2640 2c67 823e 9c74 933f 7267 7c3f
00000020: b88d 9ebf 60d5 193e 1ac4 943d 2ade 81bf
00000030: 389c f53c e3b4 0640 da99 00bd bded 4fbe
00000040: 8ed4 22bd bdbb a0bf
0.759963 0.1607992 -0.8177841 1.1235328 2.6053002 0.2546934 1.1519961 0.98595345
-1.2386999 0.15022802 0.07263966 -1.0145924 0.029981717 2.1047904 -0.031396724 -0.20305534
-0.03975349 -1.2557293

bias f4 [6]
00000000: 4087 4840 2295 1f40 2179 4f40 5c85 4140
00000010: 4b9a 5040 bfe9 5040
3.133255 2.4934773 3.2417681 3.0237646 3.2594173 3.2642667

weight f4 [6, 6]
00000000: f178 093f 32d9 84c0 c127 bd3d bf2c 943f
00000010: 61b3 69bf ca2f 883f 59d4 42be 083f 38be
00000020: 2a13 a6be e223 fdbd cdea e13d 4641 be3e
00000030: 11b5 fcbc f652 bcbc f44d b7be f155 99be
00000040: cd5d bebd 013b 17bb e65b 0f40 9609 0940
00000050: bb24 2340 297c fd3f 72a9 1640 d9de 0f40
00000060: 86f8 c1bd 2759 ac3d e5cc 0b3e 0b71 59be
00000070: 28d8 0cbe fcb6 223e 3c36 663c d6b5 cc3d
00000080: e01b d03d 4c55 89be a8c3 0abe 3955 183e
0.53700167 -4.151513 0.09236098 1.1576155 -0.91289335 1.0639584 -0.19026317 -0.17992795
-0.32436496 -0.1236036 0.11031113 0.37159175 -0.030848058 -0.022988778 -0.3580166 -0.2994838
-0.09295235 -0.002307594 2.239984 2.14121 2.5491168 1.9803516 2.3540921 2.2479765
-0.0947123 0.08415442 0.1365238 -0.21234529 -0.13754332 0.15890115 0.014051016 0.0999562
0.10161567 -0.2682289 -0.135512 0.1487626

bias f4 [6]
00000000: 17ec 6b3f bd63 c0be 94ab 3bbd 0ff2 0f40
00000010: 59f8 e3bd 1a60 39be
0.9215712 -0.37576094 -0.045817927 2.249149 -0.11131353 -0.18103066

weight f4 [1, 6]
00000000: 5486 3bc0 2243 16be 2ab0 82be 81e7 2b40
00000010: dfab 23be a1b5 55be
-2.9300737 -0.14674047 -0.25525028 2.6860049 -0.15983532 -0.20870067
