pth/tmp_50_6.39.pth (torch, 3479 bytes, 5 tensors)

weight f4 [6, 3]
000000 ed 78 a8 3e 0c 11 4b 3f cb 05 7c bf 8d 8c ee 3a
       0.3290476 0.79322886 -0.9844634 0.0018199846
000010 b8 88 09 3f ae fa 51 bf a5 8f 5a bf 70 79 91 3f
       0.5372424 -0.8202313 -0.85375434 1.1365185
000020 f8 4f ff be ae 09 71 3f 35 e7 c8 3f d2 cb d2 bf
       -0.498657 0.94155395 1.5695559 -1.6468451
000030 95 31 0f b8 1e 03 6c 39 ee 24 f7 38 d8 74 6f be
       -3.4140034e-05 0.00022507875 0.000117847565 -0.23384416
000040 4d 0d 0b 3f 32 c7 7f bf
       0.5431717 -0.9991332

bias f4 [6]
000000 61 cb 13 40 78 d5 da 3f e3 3e 2b 40 9b cb 3f 3f
       2.3092883 1.7096395 2.6757133 0.7492005
000010 35 0b d1 38 40 6d d7 3f
       9.967984e-05 1.6830215

weight f4 [6, 6]
000000 41 08 8b b9 0e 5c 52 39 56 46 89 b9 f3 26 e3 38
       -0.00026518296 0.00020061454 -0.0002618308 0.00010831458
000010 ee 08 8a b9 2d 33 c2 b4 81 4b de 3f 7d 50 8b 3f
       -0.00026328064 -3.617255e-07 1.7366792 1.0883938
000020 72 2b d0 3f d1 d2 95 3f e2 85 85 b9 16 d0 a3 3f
       1.6263258 1.1704961 -0.00025467487 1.2797878
000030 bd a3 ce 3f 2c 4b 89 3f 52 9a ad 3f 3a 58 9c 3f
       1.6143719 1.0726066 1.356272 1.2214425
000040 23 5b 44 b8 f3 01 a1 3f 8d bf 90 3f aa 1c 8e 3f
       -4.681492e-05 1.257872 1.1308457 1.1102498
000050 17 e1 a6 3f 4a 4a 80 3f 4f 14 77 b9 0b ef a7 3f
       1.3037442 1.0022671 -0.00023563321 1.3119825
000060 c1 8b 66 3f f6 44 95 3f cb 3e d2 3f 57 4d 80 3f
       0.90057 1.166167 1.6425413 1.0023602
000070 87 e7 26 b9 08 1b ad 3f 05 0b 8b 3f 54 60 8f 3f
       -0.00015917244 1.3523874 1.0862738 1.1201272
000080 16 6d a8 3f b3 33 9a 3f a0 6c 83 b9 5d ba a7 3f
       1.315829 1.2047027 -0.000250672 1.3103749

bias f4 [6]
000000 07 72 ce b8 a9 d8 91 3f 3d ba 9e 3f ad 85 8c 3f
       -9.844085e-05 1.1394244 1.2400585 1.0978295
000010 50 f1 ae 3f de b4 a6 3f
       1.3667393 1.3023946

weight f4 [1, 6]
000000 5a 7e 60 b7 07 36 d5 3f 94 9d cb 3f 1b 7c e0 3f
       -1.3380859e-05 1.6657113 1.5907464 1.7537874
000010 4b 72 05 40 c9 1b e5 3f
       2.085101 1.7899104
