pth/tmp_420_4.53.pth (torch, 3479 bytes, 5 tensors)

weight f4 [6, 3]
000000 83 9f 3e 3f b6 3f 64 3e 48 74 6d bf f7 13 84 3f
       0.74462146 0.22289929 -0.92755556 1.0318593
000010 64 96 1c 40 fa 59 2d 3f 1a 55 e1 3f 06 ef 9e 3f
       2.446679 0.6771542 1.7604096 1.2416694
000020 bd c2 9d bf 8b a8 53 3e 76 95 a7 3e a9 56 a2 bf
       -1.2325054 0.20669763 0.32731217 -1.2682697
000030 e8 cd 8d 3d ce 6b fc 3f 95 b5 f5 bd cd 3c d2 be
       0.06924039 1.9720399 -0.11997525 -0.41062012
000040 9f f9 68 be 8b 03 b4 bf
       -0.22751473 -1.4063581

bias f4 [6]
000000 02 ae 52 40 c4 e0 30 40 f4 0e 3f 40 77 64 44 40
       3.2918706 2.7637186 2.9852877 3.068632
000010 2a a1 58 40 71 78 62 40
       3.3848367 3.5386012

weight f4 [6, 6]
000000 5c 18 e9 3e 92 77 87 c0 b8 e1 b3 3e fa a9 84 3f
       0.45526397 -4.233346 0.35133147 1.0364373
000010 e8 3d c5 bf 37 8c 53 3f 59 d4 42 be 08 3f 38 be
       -1.5409517 0.82635826 -0.19026317 -0.17992795
000020 2a 13 a6 be e2 23 fd bd cd ea e1 3d 46 41 be 3e
       -0.32436496 -0.1236036 0.11031113 0.37159175
000030 11 b5 fc bc f6 52 bc bc f4 4d b7 be f1 55 99 be
       -0.030848058 -0.022988778 -0.3580166 -0.2994838
000040 cd 5d be bd 01 3b 17 bb b9 25 18 40 38 6f 03 40
       -0.09295235 -0.002307594 2.3773024 2.0536633
000050 29 f9 26 40 9c 39 07 40 43 68 11 40 b2 e5 16 40
       2.6089575 2.1128912 2.2719886 2.3577695
000060 7d 2b 11 3f 4d 94 e2 bf 54 59 7c be fb b0 34 3f
       0.5670698 -1.7701508 -0.24643451 0.7058255
000070 00 a3 3a be f7 0a c6 3f f6 1d 91 bc e1 a7 8b 3d
       -0.18226242 1.5472096 -0.017714482 0.0681913
000080 98 0d 8f 3d d7 98 99 be 93 4a 2b be 37 9c ef 3d
       0.06985015 -0.2999942 -0.16727667 0.116997175

bias f4 [6]
000000 7f c4 7f 3e bd 63 c0 be 94 ab 3b bd f4 36 11 40
       0.24977301 -0.37576094 -0.045817927 2.268979
000010 2d f2 cf 3f eb e6 59 be
       1.6245781 -0.21279494

weight f4 [1, 6]
000000 19 a4 2e c0 22 43 16 be 2a b0 82 be 58 7b 2e 40
       -2.7287657 -0.14674047 -0.25525028 2.7262783
000010 80 cf ee bf 02 e7 39 be
       -1.8657074 -0.18154529
