pth/tmp_240_4.86.pth (torch, 3479 bytes, 5 tensors)

weight f4 [6, 3]
00000000: 189c 393f bd01 353e d33f 59bf 36bb 953f
00000010: 25c3 2440 e01b a73e 935c 913f c0e2 7d3f
00000020: c790 a0bf 161d a53d 50e4 cb3d df54 8abf
00000030: 1f1b 1f3d 0c08 0640 2d54 6dbc f768 85be
00000040: 592c 95bc 8fbf a7bf
0.72503805 0.17676444 -0.84863013 1.1697757 2.5744107 0.32638454 1.1356376 0.9917412
-1.2544183 0.08062188 0.099556565 -1.0807151 0.038844224 2.0942411 -0.014485401 -0.26056644
-0.018209623 -1.3105334

bias f4 [6]
00000000: 7a3a 4840 42a7 2040 866e 4f40 b385 4040
00000010: 9213 5140 de34 5040
3.1285691 2.5102086 3.2411208 3.0081604 3.2668195 3.2532268

weight f4 [6, 6]
00000000: b67b 073f 8b2d 86c0 bde7 c13d 052a 953f
00000010: eaf9 66bf fc6e 8a3f 59d4 42be 083f 38be
00000020: 2a13 a6be e223 fdbd cdea e13d 4641 be3e
00000030: 11b5 fcbc f652 bcbc f44d b7be f155 99be
00000040: cd5d bebd 013b 17bb 9e3d 0f40 f282 0840
00000050: 1a18 2340 eeac fd3f ba8f 1640 6018 1040
00000060: 86f8 c1bd 2759 ac3d e5cc 0b3e 0b71 59be
00000070: 28d8 0cbe fcb6 223e 3c36 663c d6b5 cc3d
00000080: e01b d03d 4c55 89be a8c3 0abe 3955 183e
0.5292314 -4.1930594 0.09468029 1.1653448 -0.9022509 1.081512 -0.19026317 -0.17992795
-0.32436496 -0.1236036 0.11031113 0.37159175 -0.030848058 -0.022988778 -0.3580166 -0.2994838
-0.09295235 -0.002307594 2.2381358 2.1329923 2.548346 1.9818399 2.3525224 2.2514877
-0.0947123 0.08415442 0.1365238 -0.21234529 -0.13754332 0.15890115 0.014051016 0.0999562
0.10161567 -0.2682289 -0.135512 0.1487626

bias f4 [6]
00000000: cb7e 653f bd63 c0be 94ab 3bbd d357 1040
00000010: 59f8 e3bd 1a60 39be
0.89646596 -0.37576094 -0.045817927 2.2553604 -0.11131353 -0.18103066

weight f4 [1, 6]
00000000: bc13 3dc0 2243 16be 2ab0 82be 11cd 2b40
00000010: dfab 23be a1b5 55be
-2.9543295 -0.14674047 -0.25525028 2.6843913 -0.15983532 -0.20870067
