pth/tmp_40_6.40.pth (torch, 3479 bytes, 5 tensors)

weight f4 [6, 3]
00000000: d03a ae3e 415c 4a3f 9be5 7bbf 20c3 23bc
00000010: b55c 093f e653 52bf 0c64 5fbf 5810 913f
00000020: 1141 fdbe 0a62 743f 006b c53f 9e57 cfbf
00000030: 2685 69b6 8ab6 8eb6 69e8 f2b8 c671 81be
00000040: c844 0a3f 6577 7fbf
0.34029245 0.7904702 -0.98397225 -0.009995252 0.53657085 -0.8215927 -0.87262034 1.1333113
-0.49463704 0.95462096 1.5423279 -1.6198614 -3.4797208e-06 -4.25318e-06 -0.00011582749 -0.25282115
0.540112 -0.99791557

bias f4 [6]
00000000: cc0b 1340 fe9e d93f ef55 2a40 0721 523f
00000010: 569f 20b9 07da d53f
2.297595 1.7001646 2.661495 0.82081646 -0.00015318146 1.6707162

weight f4 [6, 6]
00000000: 9b10 f138 bdd9 0ab9 afb7 9737 9660 20b8
00000010: df63 7a39 ff5d f4b8 f638 df3f db7d 8e3f
00000020: 2ebb d03f 1eda 973f 2731 4539 7cf5 a63f
00000030: 20d9 cf3f 14d9 8c3f ac60 ae3f 57dd 9e3f
00000040: e2b2 74b8 4089 a43f 2662 913f 6be4 903f
00000050: 6537 a73f 12cd 813f 3e98 b538 26ad aa3f
00000060: f30d 663f 4adc 963f 03e8 d13f 5944 803f
00000070: 34a0 1639 cfa3 ae3f 3191 8b3f ad01 923f
00000080: f2ac a83f 2885 9b3f 5769 f138 7251 aa3f
0.000114948685 -0.0001324182 1.8086137e-05 -3.8236925e-05 0.00023879063 -0.00011652335 1.7439258 1.1132158
1.6307123 1.1863439 0.00018805695 1.3043666 1.6238136 1.1003747 1.3623252 1.2411298
-5.834073e-05 1.2854385 1.1358078 1.1319708 1.306378 1.0140707 8.65911e-05 1.3334091
0.89865035 1.1785977 1.6398929 1.0020858 0.00014364795 1.364374 1.0903684 1.1406761
1.3177779 1.2150011 0.000115113966 1.3306105

bias f4 [6]
00000000: c57f 3cb9 9354 9b3f e2d9 a83f f451 953f
00000010: 7ab4 b53f 3a3f af3f
-0.00017976675 1.2135185 1.3191493 1.1665635 1.4195702 1.369117

weight f4 [1, 6]
00000000: bee7 2938 dad3 d13f c54b c83f 7871 dd3f
00000010: 39e6 0340 35f1 e13f
4.0508567e-05 1.6392777 1.5648123 1.7300253 2.0609267 1.7651736
