pth/tmp_70_6.39.pth (torch, 3479 bytes, 5 tensors)

weight f4 [6, 3]
00000000: d91b 9f3e 720f 4a3f 82c4 7abf ef50 803a
00000010: ed4d 073f f392 4fbf 2925 50bf bc22 913f
00000020: 871c 00bf 7173 613f b552 ca3f f766 d7bf
00000030: 46c7 0bb9 96b1 41b8 c533 1838 09bb 44be
00000040: 3a19 0a3f fcb5 7ebf
0.31075934 0.7892982 -0.979561 0.0009789745 0.5285328 -0.810836 -0.813067 1.1338725
-0.5004353 0.88066775 1.580649 -1.6828297 -0.00013330308 -4.6180176e-05 3.6287838e-05 -0.19211973
0.5394474 -0.99496436

bias f4 [6]
00000000: 8360 1540 5a51 dd3f 8025 2d40 0f82 363f
00000010: 23b1 24b7 fea8 da3f
2.3340156 1.7290452 2.7054138 0.71292204 -9.816405e-06 1.7082822

weight f4 [6, 6]
00000000: 730a 3bb9 4078 9738 e7e9 1839 9295 5b39
00000010: 21fb 3b38 dadb 9ab8 bc34 dc3f cad4 843f
00000020: 0bc6 ce3f b8f6 8f3f 6ee2 3939 0a4d 9d3f
00000030: af07 cc3f 191c 823f a2cf ab3f a081 953f
00000040: 677b 2e38 5cc9 993f f132 8f3f c05b 883f
00000050: 6be8 a53f 41de 763f 8504 6039 1929 a23f
00000060: 2bcd 663f f9c6 913f 2a91 d23f 0a29 7d3f
00000070: c9e7 d438 639f a93f 8bb5 893f 0eea 893f
00000080: 23a0 a73f 7abf 953f 34e2 48b6 f23f a23f
-0.00017837602 7.2226394e-05 0.00014582985 0.00020941187 4.4818156e-05 -7.384243e-05 1.7203593 1.0377438
1.6154188 1.1247168 0.00017727326 1.2289135 1.5939845 1.0164825 1.342274 1.1680183
4.159976e-05 1.2014575 1.1187421 1.0653 1.2961553 0.9643288 0.00021363988 1.2668792
0.9015681 1.1388847 1.645055 0.98890746 0.00010152121 1.3251766 1.0758528 1.0774553
1.3095745 1.1699059 -2.993399e-06 1.2675765

bias f4 [6]
00000000: 3581 1039 0692 7f3f 9574 8b3f de70 773f
00000010: 5c0a a23f fa68 963f
0.00013781044 0.9983219 1.0894953 0.96656597 1.2659411 1.1750786

weight f4 [1, 6]
00000000: e363 b9b8 262a db3f f26a d13f 70bf e53f
00000010: 492a 0840 029f ea3f
-8.840093e-05 1.7122238 1.6360762 1.7949047 2.127581 1.8329775
