pth/tmp_380_4.59.pth (torch, 3479 bytes, 5 tensors)

weight f4 [6, 3]
00000000: c9f8 203f 309d 923e cd94 82bf f49a 963f
00000010: 128c 1840 24d4 3d3f a209 b13f fe12 8a3f
00000020: 0459 babf ba64 23bd 6669 c63e b2ee b6bf
00000030: d268 cc3d f4d9 0040 de16 72bd ee7b f8be
00000040: 495b b53c 934c cabf
0.62879616 0.2863555 -1.020166 1.1766038 2.3835492 0.74151826 1.3831065 1.0787046
-1.4558415 -0.039890982 0.38752288 -1.4291594 0.099809304 2.0133028 -0.05910384 -0.4853205
0.022138255 -1.5804619

bias f4 [6]
00000000: 4162 4d40 98dc 2f40 cc29 4840 9930 3e40
00000010: 979d 5640 c8ce 5740
3.209122 2.747839 3.127551 2.9717162 3.3533685 3.371996

weight f4 [6, 6]
00000000: 1628 df3e d629 8ec0 985f 3c3e 5798 8c3f
00000010: 4b18 a5bf e28c 7a3f 59d4 42be 083f 38be
00000020: 2a13 a6be e223 fdbd cdea e13d 4641 be3e
00000030: 11b5 fcbc f652 bcbc f44d b7be f155 99be
00000040: cd5d bebd 013b 17bb 64c0 1440 8faa 0440
00000050: cecc 2740 e93c 0540 250c 1440 ce1a 1640
00000060: 717c 143f 8168 bdbf 75c2 103e 7221 2f3f
00000070: 181b 7dbe 4238 ac3f f61d 91bc e1a7 8b3d
00000080: 980d 8f3d d798 99be 934a 2bbe 379c ef3d
0.4358527 -4.442607 0.18395841 1.098399 -1.2898039 0.9787122 -0.19026317 -0.17992795
-0.32436496 -0.1236036 0.11031113 0.37159175 -0.030848058 -0.022988778 -0.3580166 -0.2994838
-0.09295235 -0.002307594 2.3242426 2.07291 2.6218753 2.0818427 2.3132412 2.345386
0.5800238 -1.4797517 0.1413668 0.6841041 -0.24717367 1.3454669 -0.017714482 0.0681913
0.06985015 -0.2999942 -0.16727667 0.116997175

bias f4 [6]
00000000: 64ec d63e bd63 c0be 94ab 3bbd 573e 1140
00000010: 7607 9f3f ebe6 59be
0.41977227 -0.37576094 -0.045817927 2.26943 1.2424152 -0.21279494

weight f4 [1, 6]
00000000: 6f9c 3ec0 2243 16be 2ab0 82be 675b 2e40
00000010: d953 cabf 02e7 39be
-2.978298 -0.14674047 -0.25525028 2.7243288 -1.5806838 -0.18154529
