pth/tmp_0_101.26.pth (torch, 3479 bytes, 5 tensors)

weight f4 [6, 3]
0	0x3fcf338d	1.6187607
1	0xbf5241b2	-0.82131493
2	0xbfa7d90e	-1.3113115
3	0x3f86dca2	1.0536082
4	0xbf5fe477	-0.87457985
5	0xbf4daccd	-0.803418
6	0xbfbb2ac7	-1.462243
7	0x3fb13ac7	1.3846062
8	0x3f06a047	0.52588314
9	0x3fbed172	1.4907668
10	0xbf89e853	-1.0774025
11	0xbfc228d9	-1.5168716
12	0x38e6ea5e	0.00011010909
13	0xb8275b12	-3.990072e-05
14	0x397f32ec	0.00024337665
15	0x3f34d403	0.70636004
16	0xbf2cc733	-0.67491454
17	0xbf273e30	-0.65329266

bias f4 [6]
0	0x3fb2c8ea	1.3967564
1	0x3f557f3c	0.8339727
2	0x3f7e5b1a	0.9935776
3	0x3f8bed74	1.093184
4	0x392c23b6	0.00016416502
5	0x3f3bfdd3	0.7343418

weight f4 [6, 6]
0	0xba018d3f	-0.0004942007
1	0xba923449	-0.0011154498
2	0xba29debb	-0.0006480028
3	0xb98e7491	-0.000271712
4	0x388a78c9	6.602851e-05
5	0xb919ebe0	-0.00014679087
6	0x3fc6d1ce	1.5532777
7	0x3f610cc6	0.87910116
8	0x3f9349c9	1.1506892
9	0x3f8d602e	1.1044977
10	0x394aed01	0.00019352512
11	0x3f31143d	0.69171506
12	0x3fb830ea	1.4389927
13	0x3f602b64	0.8756621
14	0x3f631ee8	0.88719034
15	0x3f960bed	1.172239
16	0xb78013e2	-1.5268048e-05
17	0x3f2e755f	0.68147844
18	0x3f6e3991	0.9305659
19	0x3f61172a	0.8792597
20	0x3f50e289	0.81595665
21	0x3f6b4140	0.9189644
22	0x3954b4de	0.00020285274
23	0x3f332214	0.69973874
24	0x3f2d6311	0.6772929
25	0x3f6605eb	0.8985278
26	0x3f91e439	1.1397773
27	0x3f5d96e9	0.86558396
28	0xb99996d5	-0.00029294813
29	0x3f353737	0.70787376
30	0x3f633352	0.88750184
31	0x3f639ca8	0.88910913
32	0x3f54bf01	0.8310395
33	0x3f8e9806	1.1140144
34	0x39743e7c	0.0002329293
35	0x3f3384e5	0.70124656

bias f4 [6]
0	0xb7c0707f	-2.2940569e-05
1	0x3f7a9856	0.97888696
2	0x3f8c27bc	1.0949626
3	0x3f6411b7	0.8908953
4	0x3f90a739	1.1301032
5	0x3f8e5762	1.1120417

weight f4 [1, 6]
0	0xbdaba58c	-0.08381185
1	0x3f8f6f89	1.1205913
2	0x3f86728e	1.0503709
3	0x3f9602eb	1.171964
4	0x3fbe7b11	1.4881307
5	0x3f9c9f91	1.2236196
