pth/tmp_10_5.97.pth (torch, 3479 bytes, 5 tensors)

weight f4 [6, 3]
-0.37555903 -0.5542876 0.22639264 -0.1927931 1.3642763 0.050852776 0.310142 0.6847186
-1.2361935 -0.4972325 0.99740213 -0.9899632 0.5831382 0.58100563 -0.9006039 0.5299207
0.2824573 -0.73129165
00000000: 4649 c0be cbe5 0dbf 79d3 673e 8e6b 45be
00000010: 9ba0 ae3f 004b 503d efca 9e3e b849 2f3f
00000020: 973b 9ebf 4295 febe bf55 7f3f 3a6e 7dbf
00000030: 8c48 153f c9bc 143f fa8d 66bf e2a8 073f
00000040: 3e9e 903e ee35 3bbf

bias f4 [6]
-0.3950415 2.2488945 2.1717474 2.0518231 1.9811738 2.2138116
00000000: e142 cabe e3ed 0f40 e9fd 0a40 1251 0340
00000010: 1a97 fd3f 17af 0d40

weight f4 [6, 6]
-0.13214903 -0.07522456 -0.07475595 -0.11409392 6.6722445e-05 0.055387318 0.30843633 1.4546348
1.4427388 1.9316304 1.3918524 1.2619474 0.0048875287 1.5339193 1.0392679 1.6998056
1.1731437 0.67529947 0.01967573 0.009689731 -0.17589001 -0.09982032 0.26689476 -0.17304355
0.012979193 1.2361809 1.0204433 2.268932 0.9022519 1.6111465 -0.32203668 1.5148835
1.5990334 2.0849247 0.8523852 1.4320397
00000000: 1352 07be 560f 9abd a619 99bd 13aa e9bd
00000010: 57ed 8b38 d0dd 623d 5eeb 9d3e 7931 ba3f
00000020: aaab b83f aa3f f73f 3828 b23f 7e87 a13f
00000030: 9027 a03b 7857 c43f bb06 853f 3b93 d93f
00000040: 9329 963f 6de0 2c3f ff2e a13c adc1 1e3c
00000050: 831c 34be 996e ccbd 6ea6 883e 5432 31be
00000060: aea6 543c 2d3b 9e3f e39d 823f 2f36 1140
00000070: fbf9 663f 0c3a ce3f fee1 a4be b4e7 c13f
00000080: 20ad cc3f 686f 0540 eb35 5a3f 144d b73f

bias f4 [6]
0.022488043 0.9501177 1.4084252 0.0302435 1.3766049 1.3384496
00000000: d838 b83c ea3a 733f 4747 b43f 37c1 f73c
00000010: 9734 b03f 5152 ab3f

weight f4 [1, 6]
0.3363749 1.7995542 1.4827214 -0.12650684 1.7518626 1.7743194
00000000: 5539 ac3e cb57 e63f d1c9 bd3f 028b 01be
00000010: 093d e03f e61c e33f
