pth/val.pth (torch, 3479 bytes, 5 tensors)

weight f4 [6, 3]
000000 ba ca 46 3f db da 17 3e 5b 93 50 bf 80 58 8e 3f
       0.77653086 0.1482958 -0.81474847 1.1120758
000010 58 f8 26 40 e1 13 65 3e 7f d4 94 3f 2b ee 79 3f
       2.6089077 0.22370864 1.1627349 0.9762904
000020 ed f4 9e bf 9d 9a 35 3e b8 5d 6c 3d 80 a4 7f bf
       -1.2418495 0.17734762 0.057706565 -0.9986038
000030 80 c1 00 3d 8d 79 06 40 9d 75 35 bd 69 24 38 be
       0.031434536 2.1011689 -0.044301618 -0.1798264
000040 0c f5 59 bd ca 38 9f bf
       -0.05321221 -1.2439206

bias f4 [6]
000000 c1 7c 48 40 8b 37 1f 40 e4 59 4f 40 09 ae 41 40
       3.1326144 2.487765 3.2398615 3.0262473
000010 46 61 50 40 c1 fd 50 40
       3.255937 3.265488

weight f4 [6, 6]
000000 c9 bb 09 3f 0f 4a 84 c0 66 4d b8 3d fc ae 93 3f
       0.5380216 -4.1340404 0.089991376 1.1537776
000010 a1 e8 69 bf ab 3d 87 3f 59 d4 42 be 08 3f 38 be
       -0.9137059 1.0565695 -0.19026317 -0.17992795
000020 2a 13 a6 be e2 23 fd bd cd ea e1 3d 46 41 be 3e
       -0.32436496 -0.1236036 0.11031113 0.37159175
000030 11 b5 fc bc f6 52 bc bc f4 4d b7 be f1 55 99 be
       -0.030848058 -0.022988778 -0.3580166 -0.2994838
000040 cd 5d be bd 01 3b 17 bb 80 78 0f 40 1e d1 08 40
       -0.09295235 -0.002307594 2.2417297 2.1377635
000050 cf 33 23 40 16 8d fd 3f 40 5f 16 40 c4 dc 0f 40
       2.5500371 1.9808681 2.3495636 2.2478495
000060 86 f8 c1 bd 27 59 ac 3d e5 cc 0b 3e 0b 71 59 be
       -0.0947123 0.08415442 0.1365238 -0.21234529
000070 28 d8 0c be fc b6 22 3e 3c 36 66 3c d6 b5 cc 3d
       -0.13754332 0.15890115 0.014051016 0.0999562
000080 e0 1b d0 3d 4c 55 89 be a8 c3 0a be 39 55 18 3e
       0.10161567 -0.2682289 -0.135512 0.1487626

bias f4 [6]
000000 0e d8 6d 3f bd 63 c0 be 94 ab 3b bd 9f b8 0f 40
       0.929078 -0.37576094 -0.045817927 2.2456434
000010 59 f8 e3 bd 1a 60 39 be
       -0.11131353 -0.18103066

weight f4 [1, 6]
000000 f0 97 3a c0 22 43 16 be 2a b0 82 be 2c da 2b 40
       -2.9155235 -0.14674047 -0.25525028 2.6851912
000010 df ab 23 be a1 b5 55 be
       -0.15983532 -0.20870067
