pth/FS_old/2S_270epochs_3.3_22.2.pth (torch, 3543 bytes, 5 tensors)

weight f4 [8, 3]
00000000: 7293 7cbf 76d4 fd3f 97c2 67c0 6dce ce3e
00000010: 145f f73f dde1 26c0 6ad9 dfbe d24d ec3e
00000020: c23a 41bf 8918 7abe 50cc a93f d354 2ac0
00000030: 4941 02bf fc8d 8e3f 0192 a8bf 15f4 3b3e
00000040: 99b3 743f 7ead 2cbf 4e82 1dbf 5796 203f
00000050: 857d dbbf 55fe dabe efd7 793f 63d7 21bf
-0.98662484 1.9830463 -3.6212518 0.40391865 1.932589 -2.6075356 -0.4372056 0.46153122
-0.7548028 -0.24423422 1.3265476 -2.6614273 -0.5088087 1.113708 -1.3169557 0.18354829
0.95586544 -0.6745223 -0.61526954 0.627294 -1.714768 -0.42772165 0.97595114 -0.6321928

bias f4 [8]
00000000: d40b 83bf a9e4 84be fd58 1640 fe26 603f
00000010: 08a5 2040 f630 d43f 6c12 a43f be2c 3040
-1.0237985 -0.25955704 2.3491814 0.875595 2.5100727 1.6577442 1.2818122 2.7527308

weight f4 [8, 8]
00000000: da10 18be 25ad ccbe 2651 61be 00c6 0bbe
00000010: 72a5 0fbd a0de 3d3e 7856 5dbe 6882 aebc
00000020: 0347 94be e170 36be 1a09 e8bd 372e 1a3e
00000030: 1e33 62be cded bf3d cfe0 56be d14f 523b
00000040: 51b5 93be 59b9 4ebc 14d0 db3c d993 8a3d
00000050: 2a24 2abe 616f acbe 0fc5 cabe 49a8 853d
00000060: ed48 783d 7bc6 b9be 71af 1d3c 46c7 da3c
00000070: 8486 33bc d52e 783e 3edf 87be 1b6b 8ebe
00000080: b4da 98c0 e82b f03f dc8c 853f 046a ae3f
00000090: 85d7 a53f 0806 813f d31f 543f 8ecb 713f
000000a0: 648d 9bc0 6247 0140 4d49 b23f 67d3 963f
000000b0: a1a8 d53f 0c89 123f 7f2a 103f 6632 b73f
000000c0: 6b2e 9ac0 9b39 d53f 6e5e 9b3f cd20 863f
000000d0: 6f1e dc3f 45e0 2e3f 979d 813f 6a6e a33f
000000e0: 674e 9bc0 d7fb f03f fe9c 933f 1be0 463f
000000f0: ec61 eb3f 804e 2d3f f5d5 4c3f 8892 b13f
-0.14850178 -0.3997585 -0.22003612 -0.1364975 -0.03506989 0.18541956 -0.21615016 -0.021302417
-0.28960428 -0.17816497 -0.11329861 0.15056692 -0.22089812 0.09371529 -0.20984195 0.0032091031
-0.2884927 -0.0126174325 0.026832618 0.06766481 -0.16615358 -0.33678725 -0.3960347 0.065262385
0.060616422 -0.3628424 0.009624348 0.02670635 -0.010957364 0.24236615 -0.26537508 -0.2781609
-4.776697 1.8763399 1.0433612 1.3626103 1.2956396 1.0079966 0.8286106 0.94451225
-4.8610096 2.0199819 1.392862 1.1783265 1.6692086 0.57240367 0.56314844 1.4312255
-4.8181663 1.6658205 1.2138193 1.047876 1.7196788 0.6831096 1.0126218 1.2768071
-4.8533206 1.8826855 1.1532285 0.7768571 1.8389258 0.67697906 0.8001397 1.3872843

bias f4 [8]
00000000: fc06 323e 0a31 8dbe 55d1 403d b17d 243e
00000010: aaea 0f40 8e9c 0e40 58ed d13f 2edb 1440
0.17385477 -0.27576476 0.047074635 0.16063572 2.2486978 2.2283053 1.6400557 2.3258777

weight f4 [1, 8]
00000000: 3a93 2cbe 5c43 4d3d 40da bbbd 1c6a 86be
00000010: 7d80 de3f 948c eb3f cfec d23f c228 e93f
-0.16853037 0.050113067 -0.09172487 -0.2625283 1.7382962 1.8402276 1.6478518 1.8215563
