pth/FS_old/2S_2un_5.4.pth (torch, 5007 bytes, 7 tensors)

weight f4 [10, 5]
000000 df c0 23 3f 54 8a f5 3e 4e 32 32 be 5a 35 a3 3e
       0.6396617 0.47957098 -0.17402002 0.31876642
000010 38 58 d2 be a1 67 79 3e be 01 1a 3f eb 39 01 bf
       -0.4108293 0.24355938 0.6015891 -0.50479
000020 25 35 a7 3d 9b 93 7e be 3e ad dc be bd af 4e 3e
       0.081644334 -0.24860995 -0.43100923 0.20184226
000030 ec ff 86 bc 2b 00 09 3c 74 03 cb 3e 12 80 fc 3e
       -0.016479455 0.008361856 0.39651072 0.4931646
000040 42 0b 33 3f 2c 15 9b be ab 18 29 bd 7d 5c 1e 3d
       0.69939053 -0.3028959 -0.04128329 0.038662422
000050 c2 f5 07 3d 59 0b a8 3d 78 99 09 bf e3 a5 21 be
       0.033193357 0.082052894 -0.537498 -0.15785937
000060 e8 13 c6 3e ec 3d 5a 3e 34 50 a7 3e 39 20 f5 be
       0.38687062 0.21312684 0.32678378 -0.47876146
000070 a2 74 18 be 1f 02 86 3e ed e5 83 be 96 e3 0b c0
       -0.14888242 0.26173493 -0.25761357 -2.1857657
000080 d7 d5 88 3e 59 bd 76 3e 9c ed a2 be 5b 89 37 3f
       0.26725647 0.24095668 -0.31821907 0.7169396
000090 a3 cd bc 3e 64 e7 f5 bd 7a 23 24 3e d8 31 3d be
       0.36875638 -0.12007025 0.16029158 -0.18476045
0000a0 69 9f 15 3f 01 2e 4f 3e dc 1f f6 bd 2e c7 78 3e
       0.58446366 0.20232393 -0.120177954 0.24294731
0000b0 55 27 89 be d0 f6 07 be 4f 8e 52 3f 9b ae 1d bf
       -0.2678782 -0.13277745 0.82248396 -0.6159455
0000c0 dc 1e e7 bc 44 c4 9a be
       -0.028212957 -0.30227864

bias f4 [10]
000000 eb b5 09 3f ab e1 a8 3f 47 6a e9 3f c6 3b 35 3f
       0.5379321 1.3193868 1.8235558 0.7079433
000010 ec d6 8e 3f a8 3d 49 3f f0 8f 93 be 94 bc 32 3f
       1.1159339 0.78609705 -0.28820753 0.69819
000020 e9 6e 9e 3f dc 13 8a 3f
       1.2377597 1.0787311

weight f4 [10, 10]
000000 80 10 12 3f b9 19 24 3f 5a bb f7 3e 0f 47 1b 3f
       0.57056427 0.6410175 0.48385125 0.606553
000010 e1 95 20 3f 69 1e f1 3e d2 8a 6a bf 79 3f 0a 3f
       0.627287 0.47093514 -0.91618073 0.540031
000020 37 6c 66 3f 42 41 83 3f 33 cd e6 3d 4f 5b 0e bd
       0.9000887 1.025429 0.112696074 -0.034755047
000030 81 fa 39 be ab 14 f5 bd 1c dd 20 3e 6c 02 14 be
       -0.18161966 -0.11966833 0.15709347 -0.14454049
000040 fd 59 60 be 8c fa 50 bc 10 73 39 be 54 ae 79 be
       -0.21909328 -0.0127550475 -0.18110299 -0.24382907
000050 0b 99 2f 3c 9b 4a 81 be 23 4b 9b be 81 06 78 be
       0.010717641 -0.25252232 -0.30330762 -0.24221231
000060 84 ae b7 3d 86 6a 8d 3d 70 17 5f be 49 eb 36 bd
       0.08968833 0.06905083 -0.21786284 -0.04465798
000070 e1 ae a2 bd 44 9d 01 be 4d 43 05 3f 9c ce 36 3f
       -0.07943512 -0.12657648 0.5205582 0.7140901
000080 4e 43 0a 3f 13 4b 36 3f 79 69 1b 3f e6 6c e0 3e
       0.5400895 0.71208304 0.60707814 0.43833083
000090 ac 5a d5 be 29 83 22 3f 0c b7 3b 3f 27 b6 55 3f
       -0.4167074 0.63481385 0.7332618 0.8348107
0000a0 93 f3 17 3f e3 87 5f 3f da bb 61 3f d4 7a 4e 3e
       0.5935604 0.8731672 0.88177264 0.20164043
0000b0 40 48 d9 3e 5d e0 af bd bf 8e 59 bf cf 5a f8 3e
       0.42437935 -0.08587716 -0.8498344 0.4850678
0000c0 19 14 37 3f 98 98 80 3f 82 30 f1 3d b4 a7 66 3f
       0.7151504 1.0046568 0.1177683 0.90099645
0000d0 22 c3 0f 3f 8f fc cc 3e 42 b5 5a 3e 40 2d 41 3e
       0.56157124 0.40036437 0.21358207 0.18864918
0000e0 f0 d7 f0 be 73 e4 ec 3e 8d d5 2c 3f bd c5 01 3f
       -0.47039747 0.46268043 0.6751335 0.5069235
0000f0 8c 02 a0 3e 2e 30 52 3f 6b 4a 51 3f b6 2e 18 3f
       0.31251943 0.82104766 0.8175418 0.59446275
000100 da aa b9 3e eb cc 07 3d 5e d5 3c bf 90 32 82 3e
       0.36263162 0.03315441 -0.7376307 0.254292
000110 02 2e 5b 3f 11 6c 67 3f 5b a8 d1 3e 30 f3 cf 3e
       0.8561708 0.9039927 0.40948758 0.40615225
000120 ca 44 45 3f 4e 88 ea 3e 51 91 ac 3e a5 7d 59 3e
       0.7705809 0.45807117 0.33704618 0.21239336
000130 22 49 6a bf d3 fc cd 3e 20 33 36 3f 92 72 3f 3f
       -0.9151784 0.40231952 0.7117176 0.74784195
000140 5a fc ec bd 69 14 fe 3e b7 69 3f 3f 1c 9a 83 bd
       -0.1157157 0.49624947 0.74770683 -0.064258784
000150 ca 54 9e 3d 08 f9 8e bd 44 3a 82 bf eb c3 94 3e
       0.07731016 -0.06981093 -1.0174031 0.29055724
000160 56 ce 01 3f 2e 35 30 3f 1e 3a 8e be 82 85 80 3d
       0.5070547 0.68831146 -0.27778715 0.062754646
000170 61 90 5a be 04 57 be bd 67 0d 32 3e e4 4d 7c be
       -0.21344139 -0.09293941 0.17387925 -0.24639088
000180 ee 93 60 3e 16 f8 9b 3d 07 77 54 be e6 6e df 3d
       0.2193143 0.07615678 -0.2074853 0.10909824

bias f4 [10]
000000 70 9c 51 3f 67 3d 35 3e a4 13 8c be ed 7f 86 3f
       0.8187933 0.17699204 -0.27358735 1.050779
000010 e0 da 8b 3f 21 84 49 3f 72 b6 3f 3f fb 96 6c 3f
       1.092617 0.7871724 0.74887764 0.9241788
000020 b7 7d 50 3f d5 b8 43 be
       0.81441826 -0.19113477

weight f4 [10, 10]
000000 13 ca c8 3e 16 b5 eb bd d4 1b 14 be 63 ef ba 3e
       0.3921667 -0.11509149 -0.1446374 0.36510763
000010 41 ad 08 3f f1 cd 2c 3f 31 3a 81 3f 16 fb 49 3f
       0.53389364 0.6750174 1.0095884 0.7889875
000020 9a 9e 60 3f 93 05 84 be 32 e9 d8 3d a0 2e 7d 3e
       0.87742007 -0.25785503 0.105913535 0.24724817
000030 a8 99 8d 3e 54 5d 83 be a2 00 76 bd cb 2b 01 3e
       0.27656293 -0.2565714 -0.060059197 0.12614362
000040 1f 80 22 be 17 a7 47 3e a4 c4 71 3d d4 31 78 3d
       -0.15869187 0.19497333 0.05902542 0.060594395
000050 4a bd 73 3f 73 94 90 bd 2a 1b bc 3c 03 47 43 3f
       0.9521071 -0.070595644 0.022962172 0.7628023
000060 45 be 25 3f 46 47 5f 3f 0e ca 29 3f 71 f4 e6 3e
       0.64743453 0.8721813 0.66323936 0.4510837
000070 90 64 96 3f ff 9c 34 be e4 f7 c8 3e 3f 57 cb bd
       1.1749439 -0.17638014 0.39251626 -0.0992875
000080 f8 5b 94 3e a1 5b 93 3e 80 3c 41 3f bd f3 86 3e
       0.28976417 0.28780845 0.7548294 0.26357833
000090 81 12 69 3f bf f5 63 3f 74 64 53 3f 53 8a d1 3d
       0.9104386 0.89046854 0.82575154 0.102314614
0000a0 b1 9a 59 3e 17 36 16 3c 63 1c 67 be 45 8b 08 be
       0.21250416 0.009168169 -0.22569422 -0.13334377
0000b0 87 d2 8f be 0f ae b3 be c7 09 30 be 19 c9 48 be
       -0.28090307 -0.35093734 -0.1719123 -0.19607963
0000c0 65 1a 6f 3d 85 d2 15 3e 0e dc f8 3d f2 2b 26 bd
       0.05837478 0.14631088 0.12151347 -0.040569253
0000d0 9c 79 ce bd fb 22 a4 bd 07 66 7c be 21 06 50 3e
       -0.10081789 -0.080144845 -0.24648295 0.20314838
0000e0 88 e1 21 3d ea 22 70 be a9 e3 62 3e d5 69 25 be
       0.039521724 -0.23450819 0.22157158 -0.16153653
0000f0 77 5d 4e 3e 98 7a 5c be a7 7a 77 be be 63 9f be
       0.20152842 -0.21531141 -0.24167882 -0.31130785
000100 64 02 88 3d 60 ad 6d be c8 9a e8 3d 2c 62 c6 3d
       0.06641081 -0.23210669 0.11357647 0.096866935
000110 ad d3 02 be fe f8 9c be 63 22 70 3f cb 7b 62 bd
       -0.1277606 -0.30658716 0.9380247 -0.05529384
000120 2b 04 2a bc d3 ae 5b 3f 77 b5 58 3f f8 57 c0 3e
       -0.01037697 0.85813636 0.84651893 0.37567115
000130 d4 2b 55 3f 6c e0 36 3f e5 bb 27 3f 7d 56 09 bd
       0.8327 0.7143619 0.6552108 -0.033529747
000140 d3 07 a5 be 3a 29 2c 3d 07 a4 ff 3d d1 6c 29 3e
       -0.32232532 0.042031504 0.124824576 0.16545416
000150 55 07 97 bc 94 fd 4d 3e 48 66 d2 be f4 81 6d 3d
       -0.018436113 0.20116264 -0.4109366 0.05798526
000160 06 aa 5e 3e de 9f c6 bc 30 19 0b 3f 71 64 98 3d
       0.21744546 -0.024246152 0.5433531 0.07441033
000170 a7 78 0e 3e 43 ae d6 3e 0f 64 61 3f 15 cc e6 3e
       0.13913213 0.41929826 0.880433 0.45077577
000180 50 8e 25 3f c6 5f 80 3f 64 71 6a 3f a1 bd 3e bd
       0.64670277 1.0029228 0.9157927 -0.046567563

bias f4 [10]
000000 cb a1 7a 3f 71 be 90 be 96 46 21 3f 4b 5d 02 3f
       0.97903126 -0.28270295 0.6299833 0.50923604
000010 d4 e3 6b 3e ef 90 30 be e3 c3 9a bd d4 84 36 3f
       0.23036128 -0.17242788 -0.07556894 0.7129643
000020 5e e1 0e 3d 08 25 43 3f
       0.034882896 0.7622838

weight f4 [1, 10]
000000 5d 83 55 3f 43 f0 cd bd 1c 57 67 3f 17 35 35 3f
       0.8340357 -0.10055592 0.90367293 0.70784134
000010 19 e1 6b be 03 5c a0 3e d5 7a 9a bd 30 ee 3c 3f
       -0.23035087 0.313202 -0.075429596 0.73800945
000020 98 30 25 bc 0a 7e 58 3f
       -0.010082386 0.8456732
