pth/FS_old/2S_60epochs_4.6_5.0.pth (torch, 3543 bytes, 5 tensors)

weight f4 [8, 3]
000000 86 63 49 bf 85 3b 13 40 9d 9a ee bf 89 9d 9f 3f
       -0.78667486 2.3005078 -1.8640934 1.2469951
000010 53 8f 38 3f 95 37 66 be aa 2e 08 be 67 e6 55 3f
       0.72093695 -0.2248214 -0.13299051 0.8355469
000020 02 42 35 bf d4 19 a7 3e 76 d9 64 3f 77 af 8a bf
       -0.70803845 0.32636893 0.8939432 -1.0834798
000030 b5 ce 5b be c2 0e c0 3f 2d 09 a2 bf 80 8d ee 3e
       -0.21465571 1.5004504 -1.265905 0.4659233
000040 89 9b ae 3f 9b 2a 19 bf 8f 06 c5 bd e7 48 08 3f
       1.3641216 -0.59830636 -0.096203916 0.5323624
000050 44 5e 87 bf 8e 55 63 be 79 a2 b9 3f d8 7b f6 be
       -1.0575643 -0.22200605 1.4502708 -0.4814136

bias f4 [8]
000000 4b d4 b6 be 4d 51 b3 3f bc df f3 3f 9c 31 f7 3f
       -0.35708842 1.4009186 1.9052653 1.9312015
000010 45 8b fb 3f fe 7e ac 3f c1 40 e4 3f 78 4c 12 40
       1.9651877 1.3476255 1.7832261 2.2859173

weight f4 [8, 8]
000000 da 10 18 be 25 ad cc be 26 51 61 be 00 c6 0b be
       -0.14850178 -0.3997585 -0.22003612 -0.1364975
000010 72 a5 0f bd a0 de 3d 3e 78 56 5d be 68 82 ae bc
       -0.03506989 0.18541956 -0.21615016 -0.021302417
000020 03 47 94 be e1 70 36 be 1a 09 e8 bd 37 2e 1a 3e
       -0.28960428 -0.17816497 -0.11329861 0.15056692
000030 1e 33 62 be cd ed bf 3d cf e0 56 be d1 4f 52 3b
       -0.22089812 0.09371529 -0.20984195 0.0032091031
000040 51 b5 93 be 59 b9 4e bc 14 d0 db 3c d9 93 8a 3d
       -0.2884927 -0.0126174325 0.026832618 0.06766481
000050 2a 24 2a be 61 6f ac be 0f c5 ca be 49 a8 85 3d
       -0.16615358 -0.33678725 -0.3960347 0.065262385
000060 ed 48 78 3d 7b c6 b9 be 71 af 1d 3c 46 c7 da 3c
       0.060616422 -0.3628424 0.009624348 0.02670635
000070 84 86 33 bc d5 2e 78 3e 3e df 87 be 1b 6b 8e be
       -0.010957364 0.24236615 -0.26537508 -0.2781609
000080 a4 37 12 c0 0e 97 72 3f e1 83 9b 3f b3 71 ab 3f
       -2.284646 0.9476174 1.2149621 1.3394073
000090 7b d9 c1 3f 3b 8b e9 3f da d3 a0 3f a9 aa 82 3f
       1.5144495 1.8245615 1.2564652 1.0208331
0000a0 0b 90 17 c0 0d 3f 8a 3f e5 2e c7 3f bf 23 92 3f
       -2.3681667 1.0800492 1.5561186 1.1417159
0000b0 9f b9 f0 3f 45 be b0 3f 54 6d 7a 3f 99 60 c0 3f
       1.8806647 1.3808066 0.9782307 1.5029479
0000c0 38 ca 14 c0 76 10 3d 3f c4 43 b3 3f 29 cc 83 3f
       -2.3248425 0.7385324 1.4005055 1.029668
0000d0 27 17 fa 3f fe da c1 3f 43 85 b9 3f 1b 6d af 3f
       1.9538316 1.5144956 1.4493793 1.3705171
0000e0 1d 2a 17 c0 d6 d6 70 3f 22 b2 a8 3f 03 23 3d 3f
       -2.3619454 0.94077814 1.3179362 0.7388155
0000f0 5f 52 03 40 bd 4d be 3f 32 81 9b 3f 85 0e bb 3f
       2.0519025 1.4867474 1.2148802 1.4613806

bias f4 [8]
000000 fc 06 32 3e 0a 31 8d be 55 d1 40 3d b1 7d 24 3e
       0.17385477 -0.27576476 0.047074635 0.16063572
000010 12 51 b4 3f 57 78 b0 3f 49 84 50 3f f1 25 bd 3f
       1.4087241 1.3786725 0.8145185 1.4777204

weight f4 [1, 8]
000000 3a 93 2c be 5c 43 4d 3d 40 da bb bd 1c 6a 86 be
       -0.16853037 0.050113067 -0.09172487 -0.2625283
000010 f4 08 d8 3f fc 7e dd 3f 86 55 d0 3f df 1a de 3f
       1.6877732 1.7304378 1.62761 1.735195
