pth/FS_old/32un_rand_4.pth (torch, 33431 bytes, 5 tensors)

weight f4 [70, 35]
00000000: 91fd 3c3d fdc6 fdbe 7740 a43e ca25 ed3d
00000010: 05e0 6d3e a87c cfbd 02eb dd3b 43cd 53bd
00000020: 807d 89be 3773 3c3d 8496 af3d 95b3 013e
00000030: e55e 713d 45a2 8c3d 2bc2 0f3e c791 4dbd
00000040: 822e 613d 3dd7 de3d 10bf 2ebe 4c21 523e
00000050: c233 a0bd 9283 9bbd 774f 963b f2bf cfbd
00000060: c519 6e3d c7b1 283e cc9f b6bd d9ca 393c
00000070: 7065 293e e0ba 873d 29d9 f53d a430 08be
00000080: fb25 113d a508 39be e255 89be f0fe 033e
00000090: c3f3 993e 8768 21be 631b 803d 47a9 b13d
000000a0: 2b82 0abd ff3e 3cbe 3169 d03b 8b22 f4bd
000000b0: 0f4a fe3c 9b59 9bbd 5cd1 c13d f058 8fbd
000000c0: 6f42 23be 816d 55be 2609 4bbd 31dc 183d
000000d0: 4850 f33d c2c8 a23d 1d7f 08bd 5f73 dfbd
000000e0: 0aa9 453e 08ae 313e fb05 b5ba 07bb 55bd
000000f0: b6f9 6bbd a640 413d 946e 3bbd 8960 58be
00000100: 4c0c 63be fb68 83bc ee18 923d f225 3cbe
00000110: 0b09 e7bc 7437 0cbe 24c7 993d 9bd5 edbe
00000120: 4564 e03d 6ef8 d3bd 69bc 9e3d a786 78bd
00000130: 0344 533d 64bf 72bd 19bf c0bd 89e3 27be
00000140: 3025 6cbe 8828 d13d 17f6 2bbe de24 32be
00000150: 637e 863e ad7a 9cbd a801 943d 5de4 1f3c
00000160: 6acb 47bd 2e02 d8bd 354d a03e 6edf c43c
00000170: 52f7 b7bd 08b5 75bd 7ccb 823d 843f 0abd
00000180: 0360 39bd 79cc 77be 47ec a6bd d81d 363e
00000190: 674c babd 395a 793e edfc 98bd 5e0a 8fbe
000001a0: 6fea f53d 7a78 be3e b893 973e 4ef1 2cbe
000001b0: 713e f23d d028 5c3e 432f a83c d513 49be
000001c0: 47f8 813d 3db1 2b3d 2686 403d eda4 07be
000001d0: 99ff 8abe 6120 35be 9d97 263e b6e4 84bd
000001e0: 8ebd 9b3d 9b56 583e 740a 273d a38d b53d
000001f0: f596 29bc eedf e13a 1b31 e93c b473 d6bd
00000200: 2250 b8bb b4a8 e4bd cf29 3b3e 0135 64bd
00000210: 4646 29be 0fc6 ff3d 05ca 953d fc5e c83d
00000220: ecd5 2c3d 3e12 83bc 97d7 e93d ea70 943e
00000230: 5c5a 383e 1172 05bf 4234 8abd bc13 193e
00000240: 083c a8be e339 d7bd a0f3 0fbe d98c 23be
00000250: 87d8 5ebe 853d debd f4ba 6fbd bd8e 0bbe
00000260: 6311 0fbe d4e0 4b3d a5e8 1d3e eb28 9ebe
00000270: 4e38 d33d afe8 2fbd e578 88be 9fcf 643d
00000280: d947 9e3d 6f95 10bc be72 87be 0077 9f37
00000290: 9ee3 b6bc 5a54 60bd 1c83 523e ca4b f23d
000002a0: 971d 07be f806 58be 672b 0b3e 137f 8ebd
000002b0: c8f1 173e 7c7c a23d c050 963e a466 033e
000002c0: f568 8a3d c9af 1cbe 7285 bb3d 660e 2dbe
000002d0: df86 3f3e f7c5 1e3e cea5 a7bd ce97 20be
000002e0: d0e0 9b3d 04dd c13d 71de ecbd 1dec 013e
000002f0: 9564 5f3e 33d3 72be c566 46be 78cb 1a3c
00000300: ab5a 5bbc 61c0 b6bd 9284 e3bd f2f1 cc3d
00000310: 3de8 8a3d c3d1 873d c460 133e bfb5 1b3d
00000320: ed94 ce3d f14c febc f79b 8dbd 52cc 123c
00000330: d4de b63d 035d 5ebd 94bf 303d b8ac e1bc
00000340: c39e 06be 19db 37be f649 d83e e9b8 b53e
00000350: e901 87be 3191 803c 8fba d1bc 7b75 a03d
00000360: 7fb4 4d3e cdec 213e 2faf ae3d ca28 31bd
00000370: 6990 82bc 7ae2 103e 13c9 483d e5aa d1bc
00000380: 8f01 5cbe d328 34bd 6e98 76bc 02b2 983c
00000390: a09a 40be 5594 a0bd 3f06 5bbe a498 90bd
000003a0: 1bfd 733d 808a 463d abb0 7fbe 9131 5d3e
000003b0: 9108 383e 4473 8dbd 7a5f 153e 059c 4d3c
000003c0: 1da2 f6bd 7ecc 2cbc 5ae0 793e 9fba 943c
000003d0: 07e5 3dbd 7896 cb3e 20e7 6ebd 0f37 62bc
000003e0: d826 543c 49c0 89bd 598b 133e 075d 063e
000003f0: 486b 673e 31b5 343e adde be3d 7b3f 85be
0.046140257 -0.4956588 0.32080433 0.11579473 0.23229988 -0.10131198 0.0067724 -0.051709425
-0.2685356 0.046008315 0.085736305 0.12666161 0.05892839 0.06866888 0.14038913 -0.050187852
0.054975994 0.10880897 -0.17065072 0.20520514 -0.07822372 -0.075934544 0.0045871097 -0.101440325
0.058130044 0.16474067 -0.089171976 0.011339867 0.16542602 0.066274405 0.12004311 -0.13299805
0.03543661 -0.18069704 -0.26823336 0.1289022 0.30068788 -0.1576253 0.062552236 0.08674865
-0.033815544 -0.18383406 0.006360196 -0.11920651 0.031041173 -0.0758545 0.0946376 -0.06999385
-0.15943311 -0.20842554 -0.04956927 0.037319366 0.11880547 0.07948448 -0.03332435 -0.10910677
0.19302765 0.17351544 -0.0013810986 -0.052180316 -0.05761119 0.047180794 -0.045759752 -0.21130575
-0.2217266 -0.01604127 0.07133661 -0.1837385 -0.028202554 -0.13693029 0.07508686 -0.4645203
0.10956625 -0.103501186 0.0775078 -0.06067529 0.051578533 -0.059264556 -0.09411449 -0.16395392
-0.23061061 0.10212809 -0.16793095 -0.17396876 0.262683 -0.07640586 0.072268784 0.009759036
-0.048777975 -0.10547291 0.31308904 0.02403232 -0.089827195 -0.059987098 0.06386468 -0.03375198
-0.04525758 -0.24199094 -0.08150535 0.17784822 -0.09096604 0.24350823 -0.07470117 -0.27937597
0.12007605 0.3720129 0.29604888 -0.16888925 0.11828316 0.21499944 0.020530349 -0.19636472
0.06346183 0.041917074 0.047002934 -0.13246508 -0.2714813 -0.17688133 0.16268773 -0.06488936
0.07604514 0.21126787 0.040781453 0.08864906 -0.010350932 0.0017232874 0.028465798 -0.10471287
-0.005624787 -0.1116499 0.18277667 -0.05571461 -0.16530713 0.124889486 0.07313923 0.09783742
0.0421962 -0.01599991 0.114180736 0.28992397 0.1800322 -0.52127177 -0.06748249 0.14948934
-0.328583 -0.10509088 -0.1405778 -0.15971698 -0.21762286 -0.10851578 -0.0585279 -0.13628669
-0.13971476 0.04977496 0.15420778 -0.30890593 0.10313474 -0.042946514 -0.26654735 0.055862065
0.077285476 -0.00882469 -0.2645473 1.900969e-05 -0.022325333 -0.054767944 0.20557827 0.11830862
-0.13194881 -0.21096408 0.13590775 -0.06957831 0.14838326 0.079339 0.29358482 0.12832123
0.067583 -0.15301432 0.09156312 -0.16900024 0.18703793 0.15505205 -0.081859216 -0.15682909
0.07611239 0.094659835 -0.11565865 0.12687726 0.21815713 -0.23713379 -0.19375141 0.009447925
-0.013388316 -0.08923412 -0.1110927 0.10007085 0.06782577 0.06631806 0.14392382 0.038015123
0.10086999 -0.031042548 -0.069145136 0.008959847 0.0892922 -0.05428792 0.043151453 -0.027548179
-0.131465 -0.17954673 0.42243928 0.35492638 -0.26368645 0.015694233 -0.025601653 0.078349076
0.20088385 0.15812989 0.08529507 -0.04325179 -0.015938 0.14148894 0.049019884 -0.025594184
-0.2148497 -0.043984246 -0.0150509905 0.018639568 -0.18808985 -0.07840792 -0.21389101 -0.07060364
0.059567552 0.048471928 -0.24969737 0.2160094 0.17972018 -0.06906751 0.14587203 0.012549405
-0.120426394 -0.010546802 0.2440199 0.018155394 -0.046360996 0.39763236 -0.058325887 -0.013807072
0.012948714 -0.067261286 0.14408626 0.13121425 0.22599518 0.17647244 0.09319816 -0.26024994

bias f4 [70]
00000000: 0ab5 893f 41e8 863f 5647 7b3f 8857 513f
00000010: dfd9 503f 8674 753f f1ca 293f 00c5 693f
00000020: efe5 193f 254b 283f 787c 633f 0f1a 4e3f
00000030: 07c4 953f 4ad1 883f 2d4c 8c3f bf22 5e3f
00000040: a962 313f 1f58 4e3f 3c0b 2f3f da2a 623f
00000050: 15bb 7f3f bc94 803f 4db2 693f f580 9c3f
00000060: af10 8a3f 0551 523f 08a0 483f e05a 623f
00000070: 4dfd 8f3f c90f 5a3f d2fa 883f 7795 8b3f
00000080: 0d75 8c3f 8b4c 413f 1ba8 863f b099 973f
00000090: 58c5 8c3f 1d2b 613f d141 353f 4a51 8f3f
000000a0: e735 6d3f ddf1 243f 7182 703f 5623 083f
000000b0: e480 8b3f 9ba9 2c3f 8dd8 6f3f 3fef 473f
000000c0: 2ed2 713f bbd4 823f 9d60 223f b04e 933f
000000d0: 91d4 633f fb40 733f 4999 5f3f c266 5a3f
000000e0: 6954 1c3f 9f2e 993f 74d2 8d3f c692 2e3f
000000f0: 76dc 923f f0eb 683f 73a3 8f3f 39e5 923f
00000100: 6cbe 633f 37d4 783f e25e 9a3f 35c0 523f
00000110: 97d7 903f 56a2 843f
1.0758374 1.0539628 0.98155725 0.8177419 0.81582445 0.95880926 0.6632529 0.91316223
0.60116476 0.6573966 0.888618 0.8050851 1.1700448 1.068887 1.0960747 0.8677177
0.6929117 0.8060321 0.6837652 0.88346636 0.9989484 1.004539 0.9128769 1.2226855
1.0786341 0.82154876 0.7836919 0.88419914 1.1249176 0.85180336 1.0701544 1.0904988
1.0973221 0.7550742 1.0520052 1.1843777 1.0997725 0.8795641 0.7080355 1.1196682
0.92660373 0.64431554 0.9394904 0.5317892 1.0898709 0.674463 0.93689805 0.78099436
0.94461334 1.022117 0.6342867 1.1508389 0.88996226 0.9502103 0.8734327 0.85313046
0.610663 1.1967353 1.107985 0.6819271 1.1473529 0.9098501 1.1221756 1.1476203
0.88962436 0.97198814 1.2060206 0.82324535 1.1315793 1.0362041

weight f4 [70, 70]
00000000: af73 cc3d 7d27 783d 335f f53d c51c 413d
00000010: 6739 e63d bb72 263e ca4a 563e bffd 383e
00000020: 90ad a6bd b0ae 2c3e ca2f 0f3e cae9 3c3e
00000030: f247 ac3e 33e5 a03e 3e6c 913e 6395 033e
00000040: d4fa d43d e9ea b33d a1ab c63d 0d82 dd3d
00000050: f765 4f3e cb74 e43d 1221 1a3e aa24 7d3e
00000060: b20f 663d 40ed 643e e763 393c 5ff7 7ebc
00000070: f738 bc3e b7c1 dd3d 7199 233e d3ec 3b3e
00000080: 2f85 823e 6dec fb3d 0f47 6b3d b0c2 423e
00000090: ff55 9d3e 78ae e73d 5944 3a3e 1d38 9b3e
000000a0: 8bab 763e 94af 303d fc9e 273e e5e0 4a3d
000000b0: 3613 203e 95a1 183e 85e0 e03d 2ab4 9d3b
000000c0: b1f3 3e3e e4c4 7a3e 6f47 193e 54f6 ef3d
000000d0: 1830 dc3d 848f 813e b1c5 3a3e 8438 393e
000000e0: 144b 1abb 6d62 dd3e f59e 093e 830d c6ba
000000f0: 182c 6c3e 7d24 903c 171a 413e c05c 9d3e
00000100: 8146 423e a60a cc3d ff63 c03e 9645 853d
00000110: e953 043f 77da aa3d 2856 febd 8566 973d
00000120: 613f 2bbd ea40 703d 609b e4bb c5e5 0cbe
00000130: 4260 3a3d 1c79 25bd b173 883d c314 11be
00000140: 030f 64bd dbaf b2bd 84c1 adbd 0e38 6b3d
00000150: 38bd 673c 32f3 03bc 3aa6 9b3d 1c05 9dbd
00000160: 505c 193c cf11 b7bd bf06 d9bd 6684 8bbd
00000170: d730 80bd 6b09 79bc 92c9 d9bd 8aa0 4fbc
00000180: 2ba9 91bd 1fc7 87bd 1df7 0dbe 4c46 bebd
00000190: 8033 babd 0235 4fbd e2dd bfbc 34f2 adbd
000001a0: 30ad fd3b 8d21 fbbd b247 fdbd b067 9d3d
000001b0: cbbf 273a 7d09 85bd 9634 25bd 4ff0 8ebd
000001c0: 634b 633c c7b0 4c3d 1fb7 f5bd 871c 81bc
000001d0: 6c78 0cbd 4e9f 44bc 0aa4 69bd 3860 04be
000001e0: 8778 f9bd e707 a83d 5053 a3bc 3154 9abb
000001f0: bb01 ac3c 8ef7 9fbc 4b35 d2bb e199 bb3c
00000200: 6c04 983d 3f5f 4c3d ceb2 15be ce50 6b3d
00000210: a170 783d 9c84 d2bd 331e 803d 7ccc c03c
00000220: a214 a33d 9d6d 633d c5c1 cfbd 35f0 8d3d
00000230: d461 043e 302d 7a3e f79a 343e bb54 3f3e
00000240: 0b88 013d c33f f63b 598f 9c3d 2fff 7c3e
00000250: 6099 d03d 02fd e83d 05f6 3b3e 9fcf 363e
00000260: 75d0 603e 88fe 413e 2f05 383e 76df 243e
00000270: 86f0 023d 33ab 223e ffbb 6bba bbaa 713d
00000280: a7a2 8b3e f8f4 ca3d 9d53 903d e9a9 a63e
00000290: 88f7 a53d caf5 323d afc7 613e 161b d23d
000002a0: 5e89 a43e 14ad 623d 0fd9 c23e 8966 aa3d
000002b0: 3b80 c53e eda2 013d 4360 593e 6181 443e
000002c0: b7fe ef3d aa12 733e 9b57 db3d 7902 0f3e
000002d0: a457 753e 385f 573d 97a4 5f3e 5ca8 d03d
000002e0: 58d4 b03e 2bd9 153e 921c d9bb adbe f03d
000002f0: 48a2 b53d 8481 273e fabe 203e a816 f63d
00000300: 7e76 363e 41b5 853e 9725 573e 09df 003d
00000310: 4377 423e 5079 e23e dc73 853e c6d0 fd3d
00000320: b9d5 823e f5c1 4c3e a79f 1b3e cc90 9a3e
00000330: 2ce3 823e 1d0a 343e d13e bf3e 2207 773d
00000340: 091a de3e 8f30 d63d 56ef eb3d a62d 5a3e
00000350: 22d5 fb3d fb1c c03d 56ba be3d b52e 2f3e
00000360: ba65 b53d 0c20 083e e3b3 acbd f65a 4c3d
00000370: 6df1 163d c914 4c3e 6562 aa3e 9780 573e
00000380: 6ae5 3f3e e49d 713d 9a29 363e a081 573e
00000390: 486d 313e 9713 193e c94b 8d3e c9f1 863e
000003a0: e89c 083e 17ae 9c3e b0f3 413e 70ae 2d3e
000003b0: ec1f 413e 7042 203e 2882 6c3e a12b 243d
000003c0: 7bb9 bd3e d621 023e b4f8 be3e 280f 3d3d
000003d0: 1cfe 763e 35aa 803e 2fa4 843e 0e91 3c3d
000003e0: 7a1a 8f3d 70c3 3a3e 6359 dc3d 488f cb3d
000003f0: e0a3 1b3d b6ca 083d 3ab6 453e 4f98 3a3d
0.099830024 0.060584534 0.119810484 0.047146577 0.112414174 0.16254704 0.20926967 0.18065546
-0.08138573 0.16863513 0.13983074 0.18448558 0.3364864 0.31424865 0.28402895 0.12849955
0.10399404 0.0878504 0.09700704 0.10815821 0.2025374 0.11155089 0.15051678 0.24721017
0.056167312 0.22356129 0.0113153225 -0.015561908 0.3676221 0.10827964 0.15976502 0.1835206
0.25492236 0.12300954 0.057440814 0.1901958 0.30729672 0.11312574 0.18190135 0.3031625
0.24088876 0.043136194 0.16369241 0.049530882 0.15632328 0.14905389 0.10980324 0.004812737
0.18647648 0.2448917 0.14968656 0.11716905 0.10751361 0.25304806 0.18239476 0.18087965
-0.0023543285 0.43239155 0.13439544 -0.0015110228 0.23063695 0.017595524 0.18857609 0.30734825
0.18972208 0.099629685 0.3757629 0.06507413 0.51690537 0.0834245 -0.12418777 0.07392601
-0.04180849 0.058655657 -0.00697653 -0.13759525 0.045501955 -0.040398702 0.066626914 -0.14168076
-0.05567838 -0.08724948 -0.08484176 0.057426505 0.014144234 -0.008053588 0.076000646 -0.0766699
0.009360388 -0.089389436 -0.1059699 -0.068123624 -0.062593155 -0.015199999 -0.106341496 -0.012672553
-0.07112344 -0.06629776 -0.13863797 -0.09290752 -0.09091854 -0.05058766 -0.023421232 -0.08493462
0.007741593 -0.12262259 -0.123671904 0.076857924 0.0006399124 -0.0649595 -0.040333353 -0.06979429
0.013872954 0.049973276 -0.11997818 -0.015760673 -0.03429453 -0.012000872 -0.057041205 -0.1292733
-0.12181192 0.08204632 -0.019937187 -0.0047097434 0.020996919 -0.019527223 -0.0064150444 0.022900524
0.074227184 0.04989552 -0.1461899 0.05745011 0.060654286 -0.102791995 0.0625576 0.023535006
0.0796292 0.055524457 -0.101443805 0.069305815 0.12927943 0.244313 0.1763724 0.18684666
0.03162388 0.007514925 0.07644529 0.2470672 0.10185504 0.113763824 0.18355568 0.17852639
0.2195452 0.18944752 0.17970727 0.16100869 0.031967662 0.1588562 -0.0008992552 0.059000712
0.2727253 0.09910005 0.07047198 0.32551506 0.081038535 0.043691434 0.2204883 0.102590725
0.32136053 0.05534084 0.38056228 0.08320338 0.38574395 0.03164952 0.21228127 0.19189979
0.11718505 0.23737589 0.10710069 0.13965787 0.23959213 0.052581042 0.2184013 0.10188362
0.34537005 0.14633624 -0.0066257203 0.117551185 0.08868843 0.16358 0.15697852 0.1201604
0.17818639 0.26114848 0.21010433 0.031462703 0.18990807 0.4423318 0.26064956 0.12393336
0.25553682 0.19995864 0.15197621 0.30188596 0.25563943 0.17581983 0.37352613 0.060309537
0.43379238 0.104584806 0.11520259 0.21306476 0.12296511 0.093805276 0.093128845 0.17107661
0.088572934 0.13293475 -0.08432748 0.049891435 0.036851335 0.19929804 0.33278194 0.21045147
0.18739858 0.058988467 0.17789307 0.21045542 0.17326844 0.14948879 0.27596882 0.26356342
0.13341105 0.3060157 0.18940616 0.16961074 0.18859833 0.15650344 0.23096526 0.04008067
0.37055573 0.1270822 0.3729912 0.046157032 0.24120373 0.25129858 0.25906512 0.046036772
0.06987472 0.18238616 0.10759237 0.09939438 0.03799808 0.033396445 0.19307795 0.04555541

bias f4 [70]
00000000: 7c21 223f 8c34 f43b ebfd 1f3f 88f3 293f
00000010: fc02 003f 7d9a 193f 4e53 aabc 0dca 683c
00000020: aa36 3a3f 34fc 1f3f 0432 203f dc77 463f
00000030: 5195 e0bd efed 2d3f 0592 1b3f a940 2e3f
00000040: 12dc 433f 6bef 653e 0b02 0c3f 9969 713e
00000050: 29ef fd3e 8166 453f ad00 223f 725b c2bb
00000060: 912e d6bd 391a 063f 311c 1b3f 6fd0 2e3f
00000070: 242e b2be 5922 d03c ae5a 383f 1830 4ebb
00000080: 5765 c23e 41fe 9b3c 939d f5bc 5adc 263f
00000090: 459d 823e 95a2 8abe 58ec 3abd 2c3e 2d3f
000000a0: 5def 653c 61cd 463f ce32 efbc 2c94 893e
000000b0: 9c0a 223f 249f 263f 65bf 163f 262e 373f
000000c0: cc38 173f 29dc 443f 8c31 323f 6e3f 763d
000000d0: 0eb4 4b3f 4140 493f 0abe 2c3f 59bd 123f
000000e0: ff3c 483f 057b 663e 48e9 163f f5ba 1e3e
000000f0: 78c0 333f b05a 313f 38cd 2c3f 097d 223f
00000100: 6e47 283f ceea 213f 0953 313f 56c5 153f
00000110: 39d1 493f 3a2b 153f
0.63332343 0.007452553 0.62496823 0.66387224 0.50004554 0.60001355 -0.020791676 0.014208329
0.7273966 0.62494206 0.6257632 0.7752664 -0.1096598 0.6794118 0.60769683 0.68067414
0.76507676 0.22454612 0.5469062 0.23575439 0.49596527 0.77109534 0.6328228 -0.0059313113
-0.104581006 0.5238376 0.6058989 0.68286794 -0.34800828 0.025407003 0.72013366 -0.0031461772
0.3796794 0.019042136 -0.029982364 0.6517998 0.25510612 -0.27077165 -0.04563555 0.6767299
0.014034119 0.77657133 -0.02919903 0.2687086 0.6329744 0.6508658 0.58885795 0.7155479
0.5907104 0.7689844 0.6960685 0.060119085 0.79571617 0.7861367 0.67477477 0.5732017
0.7821807 0.22507866 0.5894971 0.15501006 0.7021556 0.69279003 0.6750064 0.6347204
0.65733993 0.6324891 0.69267327 0.58504236 0.78834873 0.58269083

weight f4 [1, 70]
00000000: f235 883e d8bf 3f3b 25bf 7a3e 2945 8b3e
00000010: b1ca 48bf 6e69 9f3e 0f52 e9bb f126 c8be
00000020: 83a7 923e 43b4 963e 7b1a 993e 0054 533e
00000030: b66c 17bd 65dd 613e ca8b 8b3e f45d 693e
00000040: e208 853e a173 8abf ed27 9f3e 879d a4bf
00000050: 2a01 89bf 00b2 493e 976f 8e3e 78eb bbbd
00000060: 5cdd 94bd ffac 023e dbb7 903e 2675 8a3e
00000070: 79b9 26bf ed2e 36bf 09cf 843e 9a58 d03b
00000080: 091e 1abf 8bb5 92bd 25af 11bd ee0f 973e
00000090: 9cc8 a8bf 5918 ddbe 2d12 04bd b1e2 703e
000000a0: 18bf 453b faaa 683e 0422 3fbc 641f 72bf
000000b0: ca17 943e a3c6 893e a1be a43e b75e a53e
000000c0: 7917 a33e fadf a33e 4c47 9b3e cbd2 b73a
000000d0: 2c3c 773e ddde 793e 19e0 323e 37e7 62bf
000000e0: 09fe 773e 3e0b 8dbf 9117 473e efb2 54bf
000000f0: 479b 833e b0bb 9b3e fd10 523e f36e 3f3e
00000100: 0803 973e a6be 873e 3bc5 963e 8a72 893e
00000110: 4300 723e 87b1 2c3e
0.26603657 0.0029258635 0.24486978 0.27201203 -0.7843428 0.31135124 -0.007120378 -0.3909221
0.28643426 0.29434404 0.29903015 0.20637512 -0.03696891 0.22057112 0.27255088 0.22789747
0.2598334 -1.0816537 0.31085148 -1.2860574 -1.070348 0.19696808 0.2781951 -0.091757715
-0.072687835 0.12761305 0.2826527 0.27042502 -0.6512676 -0.71165353 0.25939205 0.0063582184
-0.6020208 -0.07163533 -0.03556742 0.2950434 -1.3186221 -0.43182638 -0.032243896 0.23523976
0.0030173715 0.22721472 -0.011665825 -0.9457915 0.289244 0.2690936 0.32176688 0.32298824
0.31853846 0.32006818 0.30327833 0.0014024613 0.24144047 0.24401422 0.17468299 -0.88634056
0.24218 -1.1019056 0.19442584 -0.8308553 0.25704405 0.30416632 0.20514293 0.18694668
0.294945 0.2651264 0.2944735 0.268452 0.23632912 0.16864596
