pth/FS_old/3S_60epoch_5.pth (torch, 4495 bytes, 7 tensors)

weight f4 [8, 3]
0	0x3ed46df3	0.41490135
1	0x3f502070	0.81299496
2	0xbf2745fd	-0.6534117
3	0xbee2e195	-0.4431273
4	0x3f991df9	1.1962272
5	0xbf841a7b	-1.0320581
6	0x3dc92375	0.09821216
7	0x3f4a1066	0.7893127
8	0xbe4b85b1	-0.19875218
9	0xbf2f6df0	-0.68527126
10	0x3fc76390	1.5577259
11	0xbfab8549	-1.340005
12	0xbeb2bf12	-0.349114
13	0x3f5a3d47	0.8524975
14	0xbf85fc18	-1.0467558
15	0x3f182ef2	0.5944663
16	0x3f49621f	0.78665346
17	0xbef4346c	-0.47696245
18	0x3cb81f97	0.022476
19	0x3f13a58d	0.57674485
20	0xbe33a4b1	-0.17543294
21	0x3ef21da3	0.47288236
22	0x3f81c18f	1.0137194
23	0xbe87c213	-0.26515254

bias f4 [8]
0	0x3fc02504	1.5011296
1	0x3fc39ab9	1.5281593
2	0x3f93aedc	1.1537738
3	0xbea5f19c	-0.32410896
4	0x3f7759e2	0.96621525
5	0x3fbb394b	1.462686
6	0x3f829189	1.0200664
7	0x3f62b23d	0.8855322

weight f4 [8, 8]
0	0x3f9de096	1.2334163
1	0x3f2f1477	0.683906
2	0x3f029b82	0.51018536
3	0xbfd5eb21	-1.6712381
4	0x3f5defaf	0.86693853
5	0x3f9d4c41	1.2288896
6	0x3f1ac90d	0.6046303
7	0x3df90319	0.12158794
8	0x3f659089	0.8967367
9	0x3f505393	0.81377524
10	0x3e933660	0.28752422
11	0xbfca0b7e	-1.5784757
12	0x3f717a60	0.94327354
13	0x3f99c4cb	1.2013181
14	0x3efb9160	0.4913435
15	0x3d8ac71f	0.067762606
16	0x3f94cb65	1.1624571
17	0x3f5f563b	0.8724095
18	0x3f05505d	0.5207575
19	0xbfc9f93e	-1.5779188
20	0x3f4963b6	0.7866777
21	0x3f9bf18e	1.2183092
22	0x3eacf512	0.33780724
23	0x3eac5ab9	0.33662966
24	0x3f8dc107	1.1074532
25	0x3f8e5e0d	1.1122452
26	0x3f22c017	0.63574356
27	0xbfa3ed3d	-1.2806774
28	0x3f6c1485	0.9221881
29	0x3f295380	0.66143036
30	0x3f1282ce	0.5723084
31	0x3e924344	0.28566945
32	0x3e1b92c0	0.151927
33	0xbe62e1e5	-0.22156484
34	0x3dcf2ed2	0.10116352
35	0xbe47489b	-0.1946129
36	0xbea7b7b6	-0.32757348
37	0xbe964993	-0.29353008
38	0x3e0f5653	0.13997774
39	0xbdfeae6d	-0.12435613
40	0x3d06224c	0.03274755
41	0x3e84c0a1	0.25928214
42	0xbe1afe8d	-0.15136166
43	0xbe95ee9b	-0.29283604
44	0xbeb2644c	-0.34842145
45	0x3c29464f	0.010331704
46	0x3e6bce27	0.2302786
47	0xbe824eb6	-0.25450677
48	0xbdd19580	-0.10233593
49	0xbec53b39	-0.38521746
50	0x3d9ccee3	0.07656648
51	0xbe610487	-0.21974383
52	0x3e525437	0.20539938
53	0xbdc5321d	-0.09628699
54	0x3e2ac579	0.16676892
55	0xbe9520ff	-0.29126737
56	0x3f47824d	0.779332
57	0x3f938a5b	1.1526598
58	0x3f309ca0	0.6898899
59	0xbfcc5ac9	-1.5965205
60	0x3f9ba3db	1.215938
61	0x3f991b8f	1.1961535
62	0x3e1015d8	0.14070833
63	0x3f1ba047	0.6079144

bias f4 [8]
0	0x3f8dcd2c	1.1078238
1	0x3f95c840	1.1701736
2	0x3fa4f05c	1.2885852
3	0x3f86508c	1.0493331
4	0xbd993632	-0.0748104
5	0xbeba72ea	-0.36415797
6	0x3dcb441b	0.099250995
7	0x3f904e63	1.1273922

weight f4 [8, 8]
0	0xbeb9f8c5	-0.3632261
1	0xbea2f5cc	-0.31828153
2	0xbea5808f	-0.32324645
3	0xbe2a93eb	-0.16657989
4	0x3d772521	0.060338143
5	0xbda675c2	-0.08127929
6	0xbea3a582	-0.3196221
7	0xbcba2259	-0.022721456
8	0xbdc164cf	-0.09443056
9	0xbe82a250	-0.2551446
10	0x3e82a8d0	0.2551942
11	0x3dac5a78	0.08415693
12	0xbe0a9e74	-0.13537008
13	0xbe71000f	-0.23535179
14	0xbea971d7	-0.33094665
15	0xbe959d03	-0.29221353
16	0xbe9fdb71	-0.31222108
17	0xbc8cddbd	-0.017195577
18	0x3d066d9b	0.03281937
19	0xbe16f1cb	-0.14740674
20	0xbe04923b	-0.12946407
21	0xbe5fc3cd	-0.21852036
22	0xbe3abb28	-0.18235457
23	0xbe49aa79	-0.19693936
24	0x3d4d57ef	0.050132688
25	0xbe2f7cc1	-0.17137434
26	0xbe9b168e	-0.30290645
27	0x3d1dd2e4	0.0385312
28	0x3e56a758	0.20962274
29	0xbdfa37d4	-0.122176796
30	0x3cf6da25	0.030133316
31	0x3e96bca7	0.29440805
32	0x3f87b663	1.0602535
33	0x3f96d9e7	1.1785249
34	0x3f8b940b	1.0904554
35	0x3f9627fc	1.1730952
36	0x3e873ba1	0.2641268
37	0xbe95434d	-0.2915291
38	0x3cab731b	0.02092891
39	0x3fa05b1d	1.2527806
40	0xbdca11bf	-0.09866666
41	0x3d975380	0.07388973
42	0x3e812b31	0.25228265
43	0x3de39d1e	0.11113952
44	0x3e92dc2c	0.28683603
45	0xbdb55257	-0.08853596
46	0x3e846467	0.2585785
47	0xbea56f99	-0.32311705
48	0x3f986288	1.1905069
49	0x3f126e3c	0.57199454
50	0x3f813d21	1.009678
51	0x3f19e259	0.60111004
52	0xbe28c83f	-0.16482638
53	0xbe53ec6d	-0.20695658
54	0xbdb24191	-0.08703912
55	0x3f481c18	0.7816787
56	0x3f7344b2	0.95026696
57	0x3f9eb7ea	1.2399876
58	0x3f6437cb	0.89147633
59	0x3f75f189	0.9607168
60	0x3e71e62b	0.23622958
61	0xbec1858c	-0.377972
62	0xbe96e26c	-0.2946962
63	0x3f8016b7	1.0006932

bias f4 [8]
0	0x3e87ab85	0.26498047
1	0xbd3e8434	-0.046512797
2	0xbdfe6c44	-0.12422994
3	0xbeb2d8f4	-0.34931147
4	0x3fa01c56	1.2508647
5	0xbe75a90e	-0.2399027
6	0x3f31fc24	0.6952536
7	0x3f9478d2	1.1599371

weight f4 [1, 8]
0	0xbe81057a	-0.2519949
1	0x3e9fae27	0.31187555
2	0xbe9f3634	-0.3109604
3	0xbe6d765d	-0.23189683
4	0x3f90674d	1.1281525
5	0xbea89ad6	-0.3293063
6	0x3f6f79cc	0.9354522
7	0x3f692d16	0.9108442
